best_model.pth (torch, 186357 bytes, 20 tensors)

network.0.weight f4 [256, 5]
000000 3e 18 de 37 2d c1 0d 38 02 78 51 37 08 46 58 3a
       2.6475751e-05 3.379693e-05 1.2485312e-05 0.00082501816
000010 39 53 1b 3b 5f 77 4b 36 02 a2 cb 36 ed 30 88 36
       0.0023700728 3.031884e-06 6.0687316e-06 4.0588116e-06
000020 b2 95 ad ba b2 15 94 ba 99 34 a6 35 72 ca f7 37
       -0.0013243465 -0.001129797 1.2383272e-06 2.9538965e-05
000030 bb 58 f6 b6 68 3f 34 3a 71 27 b9 3a f1 f5 90 b4
       -7.341701e-06 0.00068759033 0.0014126134 -2.7001036e-07
000040 b1 32 13 35 d7 87 17 b3 7d a2 ae bb 81 5e e2 b8
       5.4835533e-07 -3.5280973e-08 -0.0053294287 -0.000107941225
000050 4b c4 ad b5 8f 78 7b 35 16 b0 17 b6 98 58 94 ba
       -1.2946633e-06 9.368022e-07 -2.260325e-06 -0.0011317907
000060 16 75 c8 b9 33 25 b3 34 1c a5 91 31 80 b8 a5 34
       -0.00038234208 3.3368414e-07 4.238826e-09 3.0867886e-07
000070 df 9e 4c bc 55 b2 e8 b7 c6 bb e8 b3 3f cb 91 36
       -0.01248905 -2.7739597e-05 -1.0837498e-07 4.3449977e-06
000080 f4 ac c2 b4 cd 2d 1a 3b 38 3f e0 39 eb cc c6 b7
       -3.6261156e-07 0.0023525835 0.0004277171 -2.3698862e-05
000090 a1 03 10 b7 62 d6 6c b7 e5 1d 96 3a 0e 06 96 b9
       -8.583914e-06 -1.4116611e-05 0.0011453001 -0.0002861474
0000a0 49 06 2e 36 84 d9 78 b9 54 94 f8 b7 b4 67 76 3a
       2.593168e-06 -0.00023732154 -2.9632974e-05 0.0009399608
0000b0 fc 13 e6 b9 b4 bd b8 b5 20 c4 14 b6 59 cc a6 35
       -0.00043883908 -1.3764279e-06 -2.2167878e-06 1.2427437e-06
0000c0 0f 2b cf ba 46 05 58 39 11 87 c4 b7 b8 59 77 b7
       -0.0015805679 0.0002060133 -2.3427916e-05 -1.47432365e-05
0000d0 03 ba 94 b7 52 f2 84 3a 87 97 56 3a 78 98 19 b6
       -1.7729593e-05 0.0010143018 0.00081860315 -2.2887525e-06
0000e0 fd cb ad b5 f1 0f cd b5 b5 36 5d 3b 2f 73 1c b8
       -1.2948873e-06 -1.527833e-06 0.0033754532 -3.730057e-05
0000f0 85 90 26 36 fd 0a ae 35 1f 97 53 36 6c 26 22 bb
       2.482005e-06 1.2967208e-06 3.1529414e-06 -0.002474214
000100 6d bd ca b7 b7 5c 00 b5 a0 ad 22 35 b3 d6 3b b5
       -2.4168485e-05 -4.7818634e-07 6.060236e-07 -6.9975357e-07
000110 19 97 0a 3c 1b a6 8c 38 83 fe ce b7 1a 4f 84 b7
       0.008458876 6.70666e-05 -2.467563e-05 -1.577246e-05
000120 25 6d 88 b7 b0 b4 8e 3a 46 96 10 39 fe 6b e5 b6
       -1.6263288e-05 0.0010887589 0.00013788891 -6.8373038e-06
000130 bd 64 29 b6 2a 76 ae b6 14 d9 28 3a 2f 61 98 39
       -2.52416e-06 -5.19936e-06 0.00064410386 0.00029064107
000140 77 44 2d 36 59 5e 72 36 e9 43 7d 36 47 e2 70 ba
       2.581886e-06 3.6115728e-06 3.7739467e-06 -0.00091889914
000150 60 de c8 b9 39 3a 98 35 8c 41 9b 35 76 bd 83 34
       -0.00038312655 1.1341828e-06 1.1567477e-06 2.4538502e-07
000160 d4 25 bf bb d2 76 60 b9 79 19 a0 34 f4 fa f8 b5
       -0.005833367 -0.00021406569 2.9820856e-07 -1.8550477e-06
000170 dc 95 1b 36 46 f7 72 ba 63 74 11 3a 7e 7e 0b b8
       2.318403e-06 -0.0009268414 0.0005548654 -3.3257988e-05
000180 c9 05 35 37 a6 fc 03 b8 a8 99 e8 39 b8 fd 9b 3a
       1.0789788e-05 -3.146813e-05 0.0004436497 0.0011901176
000190 41 b6 45 35 08 ae 54 36 21 1f d5 35 a7 ea 2e ba
       7.3653433e-07 3.1691761e-06 1.5878796e-06 -0.0006672539
0001a0 7d 40 d3 b9 88 ab 8f b7 30 41 25 36 88 3c 44 b7
       -0.00040293104 -1.7126804e-05 2.462486e-06 -1.1696604e-05
0001b0 e0 64 83 3a 76 3b 85 39 76 2e aa 35 dd aa 8d 35
       0.001002457 0.0002541204 1.2679509e-06 1.0555046e-06
0001c0 e5 5c 10 35 37 53 35 3c 48 5c 62 b8 70 75 8f b5
       5.377936e-07 0.011067203 -5.3968542e-05 -1.0688509e-06
0001d0 66 13 16 32 05 41 8c b5 b3 9e 00 3c 0f f3 fa 37
       8.73556e-09 -1.0449736e-06 0.007850337 2.9915505e-05
0001e0 e4 4f e8 35 e0 89 d1 36 f9 3c 0a b5 47 05 3d 3b
       1.7308598e-06 6.244736e-06 -5.1497733e-07 0.0028842257
0001f0 12 92 0e 3a e2 53 07 b6 72 5b ae b5 1d eb 46 36
       0.0005438636 -2.0165394e-06 -1.2990624e-06 2.9641153e-06
000200 af 0c 32 ba 47 d1 b2 b9 9e 2e 68 b4 1e 4b 60 35
       -0.0006792051 -0.0003410673 -2.1623643e-07 8.355581e-07
000210 f0 de 2c b5 ca c0 02 3c 3c 46 72 38 1b eb cf b5
       -6.439941e-07 0.007980535 5.7762707e-05 -1.5491127e-06
000220 64 4e 79 b5 6f 53 11 b4 3c bb 00 3b 1e be 8f b8
       -9.28738e-07 -1.353453e-07 0.001964285 -6.8541834e-05
000230 53 c6 24 b5 80 2a f1 35 7b 33 88 b5 43 e1 71 3b
       -6.138336e-07 1.7968268e-06 -1.0147772e-06 0.0036907948
000240 98 2d 78 39 85 3e 24 35 58 a1 0e b5 7f 71 a5 35
       0.00023668108 6.118574e-07 -5.313391e-07 1.232649e-06
000250 56 05 ad bb 38 e0 f9 36 5f 79 90 35 11 c6 b4 b5
       -0.005280177 7.4468808e-06 1.076416e-06 -1.346869e-06
000260 1b 8b 66 36 48 96 34 ba 7c e4 56 b9 21 37 3a 35
       3.435364e-06 -0.0006888849 -0.00020493747 6.937062e-07
000270 8a 56 fc 34 cc a3 78 35 3e 9c 06 bc 7d b9 b3 b8
       4.7001623e-07 9.2625555e-07 -0.008215962 -8.569935e-05
000280 78 d3 45 36 84 47 3e b6 85 74 94 36 e7 fa 82 ba
       2.9478379e-06 -2.8353834e-06 4.4243084e-06 -0.0009992988
000290 5b ad b9 39 a5 8f 17 37 e4 21 c8 35 3e 7d 48 36
       0.0003541511 9.033746e-06 1.4911025e-06 2.9875223e-06
0002a0 4b 43 66 ba 23 43 73 ba 01 83 b7 35 48 39 d7 34
       -0.0008783831 -0.00092797185 1.367269e-06 4.0088548e-07
0002b0 22 b0 8b 35 12 c1 8d bb 6a b9 11 b9 87 ae ae b8
       1.0407568e-06 -0.0043259943 -0.0001389735 -8.329475e-05
0002c0 9a 7d 80 b7 c5 77 75 b8 81 2a 66 3a 8e f9 80 3a
       -1.5317277e-05 -5.8524096e-05 0.0008780137 0.0009839998
0002d0 05 c5 b2 b7 6d dc 55 35 35 14 81 b7 34 48 3b 3a
       -2.1310998e-05 7.9669445e-07 -1.5387408e-05 0.0007144243
0002e0 6d 31 81 3a f1 5c 92 34 63 50 93 35 95 dc e7 b3
       0.0009856649 2.7262243e-07 1.0975749e-06 -1.07968994e-07
0002f0 44 cb 50 bb 36 be 83 b9 75 3a 83 35 82 44 15 35
       -0.0031859437 -0.00025127985 9.777274e-07 5.560652e-07
000300 41 80 03 35 95 31 b3 bb 5f f1 b3 b8 a2 19 c7 b6
       4.8987937e-07 -0.005468557 -8.580344e-05 -5.933646e-06
000310 98 0f 07 b6 8f ea d1 b6 52 fd 88 3b 40 0f c1 38
       -2.0125644e-06 -6.2559916e-06 0.0041805888 9.205798e-05
000320 f3 d1 78 35 26 de 48 35 e4 1d a1 34 68 ec 28 bb
       9.2692716e-07 7.4829074e-07 3.0010335e-07 -0.0025775675
000330 dd 1a f6 b8 73 69 08 37 20 d0 43 37 5e 02 54 36
       -0.00011735198 8.1307835e-06 1.1671364e-05 3.159184e-06
000340 c6 e1 84 3a e6 3a 2c 3a d6 57 d9 35 60 ec 53 36
       0.0010138087 0.0006570056 1.6193324e-06 3.1579038e-06
000350 fe f7 f5 b5 de 41 a8 3b d2 9e 94 39 97 81 d3 b4
       -1.8326098e-06 0.005134805 0.0002834709 -3.9396102e-07
000360 52 7b 95 35 98 8c 53 b6 49 fa 0f 3b 66 f9 c0 39
       1.1137256e-06 -3.1523286e-06 0.002196925 0.0003680691
000370 7d 63 82 b5 4d 2a d8 b3 a3 be 23 b5 ad 6e 12 3c
       -9.71471e-07 -1.0065978e-07 -6.0999645e-07 0.00893752
000380 b5 bc 00 38 6e 04 65 36 18 a9 6d 36 13 a0 ab 36
       3.0693325e-05 3.4126238e-06 3.5414178e-06 5.114832e-06
000390 bd f5 5c ba d2 e6 3a ba d7 6d c3 b6 61 f7 84 b6
       -0.0008428952 -0.0007129732 -5.82424e-06 -3.9627053e-06
0003a0 25 db 92 b6 48 59 84 3b 10 cf e2 b8 cf 1b 89 b5
       -4.376651e-06 0.0040389635 -0.00010815088 -1.0215389e-06
0003b0 e4 fd 87 37 d9 a5 43 b7 25 7f ac 39 a1 91 3d 3b
       1.6211481e-05 -1.166152e-05 0.00032901127 0.0028925913
0003c0 cb 66 27 36 88 9a 0f 36 b4 99 46 36 a2 2d c1 ba
       2.4944773e-06 2.139861e-06 2.9593766e-06 -0.0014738331
0003d0 36 61 9f b8 f7 82 35 35 00 d8 c0 35 49 c3 80 35
       -7.599818e-05 6.7618333e-07 1.4367979e-06 9.593579e-07
0003e0 58 52 d2 3b 89 1a c0 38 d9 f6 d3 b3 ce 28 1f 36
       0.0064185075 9.160216e-05 -9.8703545e-08 2.3716598e-06
0003f0 2b 17 b7 35 19 bd 3c 3b cc 8c 83 39 85 c7 3b b6
       1.3641305e-06 0.0028799234 0.0002509117 -2.7981307e-06

network.0.bias f4 [256]
000000 ac f3 43 ab e7 50 0e ab ba 29 a1 ab 53 f3 37 2a
       -6.961608e-13 -5.056081e-13 -1.145132e-12 1.6338085e-13
000010 dc a3 81 2b fd 8e a9 29 b6 ab 95 2b c6 4d 41 ac
       9.211481e-13 7.529912e-14 1.0634746e-12 -2.7470123e-12
000020 85 d4 20 2c 4a 44 1a aa 81 88 7c ac bb 94 90 aa
       2.285534e-12 -1.370164e-13 -3.5887129e-12 -2.568274e-13
000030 e6 6d 45 29 08 6a 4a a9 ae 7b df 2b 69 80 ed ab
       4.383811e-14 -4.4944978e-14 1.5879431e-12 -1.6875504e-12
000040 ec 24 74 ac b5 cd 0a 2a 79 e2 9f aa b0 d7 5e 2b
       -3.4694981e-12 1.2328231e-13 -2.840122e-13 7.916957e-13
000050 76 e1 b1 ab ac b4 99 ab 6e 43 dd 29 68 f0 34 2a
       -1.2639184e-12 -1.092145e-12 9.826069e-14 1.6070619e-13
000060 7d 88 89 2b fc 9b a1 aa f0 ec 40 2a ab 35 3d 2a
       9.772319e-13 -2.870758e-13 1.713523e-13 1.6805192e-13
000070 5e d6 0b 2b 72 2b 0d 2a 24 85 34 aa 6c b7 59 2a
       4.9680214e-13 1.2538389e-13 -1.6033404e-13 1.9337109e-13
000080 ad 29 4d ab 98 ab 29 aa cd c3 2d 2b b3 d5 93 2d
       -7.2888467e-13 -1.5069749e-13 6.1733675e-13 1.6806867e-11
000090 40 94 44 ac a1 50 31 29 ba 4b e9 a9 09 44 d2 2a
       -2.793557e-12 3.937183e-14 -1.0360415e-13 3.7350703e-13
0000a0 8a a7 f7 a9 bc d7 5f ab 7b 67 59 2b 0d c0 98 2b
       -1.0998067e-13 -7.9524907e-13 7.7237495e-13 1.0853554e-12
0000b0 9c 55 58 aa ec 03 c9 29 56 70 12 2b 57 9e 10 2b
       -1.9214356e-13 8.9268735e-14 5.2025517e-13 5.137882e-13
0000c0 e0 78 a9 28 1c bf fd 29 e6 95 2b 2b cf 66 98 ab
       1.881519e-14 1.1268609e-13 6.095943e-13 -1.0828785e-12
0000d0 fa f2 93 28 c5 ce 9d aa 56 c7 54 2b e2 67 98 2b
       1.6425653e-14 -2.8032278e-13 7.5594164e-13 1.0829083e-12
0000e0 85 43 a0 a9 91 9a 74 ab 9c 03 b8 2b 92 be dc 2a
       -7.11714e-14 -8.690072e-13 1.3074988e-12 3.9212085e-13
0000f0 7a ed 16 2a 2c d5 7b 2c 68 4f 5b ab 71 ba 6f aa
       1.3405068e-13 3.578758e-12 -7.791463e-13 -2.1292149e-13
000100 ae 24 c9 29 22 cf 25 aa 22 94 3d 2b 25 b0 eb 2b
       8.932556e-14 -1.4726808e-13 6.7351864e-13 1.6746644e-12
000110 34 e6 0f 29 a5 c3 95 2c 74 18 be 29 f5 52 a7 ab
       3.1952048e-14 4.2565556e-12 8.441937e-14 -1.1889089e-12
000120 81 ab f7 ab 2e 63 53 2b 94 c5 26 2b aa 4f 58 2a
       -1.7598007e-12 7.50999e-13 5.924924e-13 1.9212293e-13
000130 22 c2 f0 ab e6 2f e9 aa 84 cd 14 a9 5c 05 e3 2b
       -1.7106908e-12 -4.142235e-13 -3.3040858e-14 1.6130808e-12
000140 b3 af c5 2b 4a 47 a4 a9 9b 16 82 ab 5d 25 98 a9
       1.4046458e-12 -7.29543e-14 -9.24333e-13 -6.7566375e-14
000150 24 d4 90 2a 51 38 ea 2b 4c 6f ac a7 05 ff 00 ab
       2.572674e-13 1.6642331e-12 -4.786026e-15 -4.5828646e-13
000160 9b fd 8f aa f0 f1 42 2a 28 1b 5d 2a fa 84 de 29
       -2.5577877e-13 1.73146e-13 1.9638165e-13 9.881848e-14
000170 a7 78 06 2c 2d 05 6a aa c0 5d b4 29 5b ce eb ab
       1.910952e-12 -2.0785171e-13 8.009869e-14 -1.6755029e-12
000180 d5 ce 4e ab 23 5f e0 2b 98 56 b4 aa 67 9c 7c 2a
       -7.347294e-13 1.5942563e-12 -3.203451e-13 2.2436359e-13
000190 84 65 86 2b 05 0e 40 ad 43 b8 f1 a9 55 87 a7 2c
       9.549449e-13 -1.0917049e-11 -1.0734514e-13 4.7614503e-12
0001a0 09 39 87 28 0b 28 bf a9 9c 59 c5 aa b6 3b 84 2a
       1.5012746e-14 -8.48905e-14 -3.505641e-13 2.3489343e-13
0001b0 08 04 d9 2c 66 df 9a 2a 49 66 6b 2b 1a 50 cc 28
       6.1679585e-12 2.751091e-13 8.363072e-13 2.2683288e-14
0001c0 6c 02 10 aa fc 1b a0 2a 65 1b 59 ac a6 e8 be 2b
       -1.279061e-13 2.8441127e-13 -3.0852762e-12 1.3564885e-12
0001d0 4d 89 e6 ab 20 c9 29 2b fc c8 57 2b fe 91 3a 2a
       -1.6380592e-12 6.031998e-13 7.6662266e-13 1.657077e-13
0001e0 f4 d5 40 27 d1 2b 13 ac 9a aa a8 2c 3c ba 88 28
       2.6761337e-15 -2.091428e-12 4.7937878e-12 1.51798e-14
0001f0 a0 d2 e3 2a 20 8f 8c a9 24 43 34 ab 84 7e 23 2a
       4.046945e-13 -6.242077e-14 -6.404202e-13 1.4521202e-13
000200 fb 8f 64 29 c4 23 f4 aa a3 d7 de aa ae 08 b3 ab
       5.0751053e-14 -4.3367924e-13 -3.958475e-13 -1.2721124e-12
000210 54 0a 10 aa 04 9f e9 2a ca 8a 12 2b 0e f2 52 2b
       -1.2793353e-13 4.1499454e-13 5.206223e-13 7.4942906e-13
000220 b2 22 e9 ab 4c 70 2c a9 76 64 02 29 0c af 05 2b
       -1.6565276e-12 -3.8289074e-14 2.8952935e-14 4.749402e-13
000230 cc 44 14 aa 65 c3 c0 a9 34 47 ea aa a0 b8 b4 ac
       -1.316891e-13 -8.5604084e-14 -4.1616157e-13 -5.136405e-12
000240 48 fb f9 2a 84 5d 19 ac 5d cf 0a a9 ee 75 b2 2b
       4.4405647e-13 -2.179452e-12 -3.0822014e-14 1.2680393e-12
000250 73 a6 ef a9 38 b3 b2 2b 61 23 df 2a 41 be 1d 2b
       -1.06426065e-13 1.2697404e-12 3.9637307e-13 5.6041635e-13
000260 3a ee af aa 0e a0 f5 2a 69 5a 34 ab 60 2d e1 28
       -3.1251548e-13 4.3631803e-13 -6.4074316e-13 2.4999696e-14
000270 e9 6f 0a aa 7e 58 20 2c 50 8e f4 26 61 0a 03 2b
       -1.2295689e-13 2.278649e-12 1.6969475e-15 4.6554953e-13
000280 ab e4 86 ac d4 9f 79 a9 5f 0e 93 2a 76 ef 02 2a
       -3.8338963e-12 -5.5427735e-14 2.6122417e-13 1.1629399e-13
000290 b0 d8 c3 28 8e f4 ae aa 60 4b 66 28 da 63 cc 26
       2.1743322e-14 -3.1078303e-13 1.2783909e-14 1.4182408e-15
0002a0 c7 bc 12 aa 65 40 a2 2a 16 1a f8 ab f1 ed ce 2b
       -1.30329e-13 2.8821663e-13 -1.76287e-12 1.4703222e-12
0002b0 24 c5 05 ab 2c d8 84 ab 16 cb 1c aa 88 29 ad aa
       -4.752468e-13 -9.439164e-13 -1.3926043e-13 -3.0759791e-13
0002c0 96 15 2f ab c0 48 9c 2b d1 df 42 2b d3 4e 72 aa
       -6.2202446e-13 1.1104659e-12 6.9233253e-13 -2.1521265e-13
0002d0 ac 35 f3 aa 19 b8 5a aa f8 48 91 a9 a9 a3 05 aa
       -4.3202714e-13 -1.9426161e-13 -6.4519516e-14 -1.1869554e-13
0002e0 54 e3 07 2a c8 92 cd aa 99 af 8b ac 1a 1d b5 2a
       1.2069279e-13 -3.6517165e-13 -3.970113e-12 3.2172252e-13
0002f0 d3 cc a1 2a aa 94 5f 2a 4d 6c 95 29 bf 7a 5e aa
       2.874147e-13 1.9857957e-13 6.6357164e-14 -1.9760147e-13
000300 1d a7 d7 2a 7a 2a 44 a9 32 b0 70 aa b2 f7 99 ac
       3.830763e-13 -4.3557585e-14 -2.1377412e-13 -4.3760212e-12
000310 fc 6a a5 ab a8 58 bd 2b 31 38 e4 2a f2 ea 5c ab
       -1.1753649e-12 1.3453865e-12 4.0539927e-13 -7.8485753e-13
000320 c2 fe 6a a9 eb 24 86 ab 01 a8 a2 28 7a ac df 2a
       -5.2179405e-14 -9.531519e-13 1.8058473e-14 3.9732437e-13
000330 20 87 91 a9 2c 02 27 29 3c 77 02 aa 44 77 78 2a
       -6.462734e-14 3.7083333e-14 -1.1587687e-13 2.2068203e-13
000340 52 31 b8 2a 41 c6 82 2c 5d 70 18 2a c5 6e 9e aa
       3.271919e-13 3.716833e-12 1.3539296e-13 -2.81433e-13
000350 2f 25 cc aa f1 d8 c7 aa 91 89 b1 ab 97 24 71 ac
       -3.626348e-13 -3.5500034e-13 -1.2614789e-12 -3.4268471e-12
000360 c7 33 f0 2a 72 5d b3 27 2f a2 db 2a c3 06 17 aa
       4.2668492e-13 4.9783794e-15 3.9014752e-13 -1.341384e-13
000370 68 38 bf 28 02 25 20 2c 27 91 09 ab 57 f8 c1 2c
       2.1229722e-14 2.275791e-12 -4.8873617e-13 5.512961e-12
000380 04 b0 d6 aa 10 c0 05 af 99 3e c9 a8 ff 71 c5 2b
       -3.8136172e-13 -1.2164514e-10 -2.234263e-14 1.4029332e-12
000390 0c f6 56 aa 00 ea 82 24 33 c0 ab a8 cf 3d db aa
       -1.9092383e-13 5.6774924e-17 -1.9068167e-14 -3.8945103e-13
0003a0 a4 ee 82 aa c8 52 b4 29 c8 cf 44 ac 40 03 c3 ac
       -2.325823e-13 8.007966e-14 -2.7968617e-12 -5.542594e-12
0003b0 fc 26 9b a9 52 6d 34 ac 2c b1 52 2a 4c e8 7f 2a
       -6.8901455e-14 -2.5640223e-12 1.8713216e-13 2.2729144e-13
0003c0 4f d3 e2 aa 96 00 d2 ab 94 db fe a9 19 91 8e a8
       -4.029229e-13 -1.492156e-12 -1.1317957e-13 -1.5828093e-14
0003d0 fd 10 04 ab 33 a8 04 ac bc 2f ae 2a 69 cd 05 ad
       -4.6919397e-13 -1.8851698e-12 3.0941731e-13 -7.605785e-12
0003e0 09 4c 9d 2a 5a 92 05 2b d1 60 0d ab f7 1b f7 a8
       2.7941562e-13 4.7454196e-13 -5.022762e-13 -2.7434637e-14
0003f0 46 3b 5b a8 a9 bf dd aa 69 e9 3d 2a d1 0d 98 ab
       -1.2169795e-14 -3.9390477e-13 1.6867553e-13 -1.0804084e-12

network.1.weight f4 [256]
000000 a0 9a 7d 3f 9d f5 75 3f d5 48 72 3f 9a 85 6d 3f
       0.99064064 0.960779 0.9464238 0.92781985
000010 b1 b3 69 3f 10 64 74 3f 59 a6 74 3f bf 67 79 3f
       0.9128981 0.95465183 0.95566326 0.9742393
000020 b3 40 6b 3f 13 eb 70 3f 53 4e 84 3f e2 a3 75 3f
       0.918956 0.94108695 1.0336403 0.9595319
000030 f7 e6 74 3f f5 ad 6b 3f 76 3a 7e 3f 0b 6b 70 3f
       0.95664924 0.9206231 0.99307954 0.93913335
000040 17 ee 78 3f 5a 59 73 3f cd 83 6e 3f ca 33 81 3f
       0.97238296 0.95058215 0.9316986 1.009393
000050 5c 15 6c 3f 0e 53 76 3f 7a e0 73 3f e9 3e 82 3f
       0.9222009 0.9622048 0.952644 1.0175449
000060 a0 93 72 3f 86 90 71 3f 80 6f 78 3f 68 ff 75 3f
       0.9475651 0.9436115 0.97045135 0.96092844
000070 55 23 71 3f c1 f2 77 3f f3 3b 6c 3f f8 aa 75 3f
       0.9419454 0.9685479 0.92278975 0.95964
000080 97 a0 7c 3f fc 61 76 3f ff c9 74 3f 14 5e 82 3f
       0.9868254 0.9624326 0.9562072 1.018496
000090 54 be 7d 3f b6 a7 73 3f f1 b9 6c 3f be bf 7d 3f
       0.9911854 0.9517778 0.92471224 0.991207
0000a0 a7 aa 69 3f 20 91 73 3f 00 ab 7d 3f fa da 77 3f
       0.9127602 0.9514332 0.9908905 0.96818507
0000b0 36 26 70 3f 08 27 6f 3f 36 88 79 3f 89 d9 6d 3f
       0.93808305 0.9341893 0.97473466 0.9291006
0000c0 f2 44 6e 3f 15 78 6e 3f a6 3d 75 3f 4c 59 79 3f
       0.9307395 0.9315198 0.95797193 0.9740188
0000d0 ad 02 73 3f ab 10 78 3f 7c 9c 6e 3f a1 64 6c 3f
       0.9492596 0.96900433 0.93207526 0.9234105
0000e0 bc 09 79 3f ba 35 72 3f 7f 08 71 3f 9e d9 6e 3f
       0.9728048 0.9461323 0.9415359 0.9330081
0000f0 58 ac 6e 3f 94 18 6d 3f cc 93 7a 3f e5 e4 6f 3f
       0.93231726 0.9261563 0.9788177 0.9370864
000100 c3 0c 6d 3f e7 36 72 3f c5 69 6c 3f 96 f6 6f 3f
       0.925976 0.94615024 0.9234889 0.93735635
000110 5c 00 70 3f 85 38 81 3f a0 30 75 3f fc 4f 6f 3f
       0.9375055 1.0095373 0.9577732 0.9348142
000120 dd 88 76 3f c5 9a 6a 3f 16 d8 71 3f a7 22 83 3f
       0.96302587 0.9164241 0.94470346 1.024495
000130 46 bd 71 3f 6c d8 6f 3f 84 f9 7c 3f 9a d0 6a 3f
       0.94429433 0.9368961 0.9881823 0.9172455
000140 85 d3 71 3f 70 ea 68 3f 72 b2 7b 3f 32 ae 78 3f
       0.9446338 0.90982723 0.9831916 0.971408
000150 f4 a4 78 3f 93 a4 74 3f 4f 6b 6d 3f 87 0f 73 3f
       0.971267 0.9556362 0.92741865 0.9494557
000160 d9 a5 68 3f 38 85 73 3f 28 7c 77 3f b1 7b 6f 3f
       0.90878063 0.9512515 0.9667382 0.93548113
000170 35 b5 6c 3f cb 9b 72 3f da 8d 70 3f 84 e2 71 3f
       0.92464 0.9476897 0.9396645 0.9448626
000180 1c bd 71 3f c9 90 6e 3f 41 3a 70 3f 4b 65 78 3f
       0.94429183 0.93189675 0.9383889 0.9702956
000190 59 a8 70 3f 6d d1 71 3f 18 a9 78 3f 2c 6d 68 3f
       0.9400688 0.94460183 0.97133017 0.90791583
0001a0 1e 5c 72 3f e6 69 68 3f 17 57 79 3f b1 6f 77 3f
       0.9467181 0.9078659 0.97398514 0.966548
0001b0 52 93 70 3f ea 75 70 3f 55 5d 75 3f da a7 76 3f
       0.9397479 0.9392992 0.9584554 0.9634987
0001c0 a5 8b 6e 3f 40 8b 6f 3f bc c1 69 3f ab 25 77 3f
       0.9318183 0.93571854 0.9131124 0.9654185
0001d0 64 ce 74 3f fe d7 74 3f 66 c7 72 3f b6 7a 74 3f
       0.9562743 0.9564208 0.9483551 0.9549974
0001e0 7c c5 6e 3f ca 05 79 3f aa 64 7f 3f dd af 6f 3f
       0.9327009 0.9727446 0.99762976 0.9362772
0001f0 21 cc 74 3f bb af 77 3f 63 ae 72 3f 26 96 75 3f
       0.95623976 0.9675252 0.94797343 0.95932233
000200 28 5c 79 3f 79 b6 7c 3f 4c 6d 81 3f d8 88 71 3f
       0.97406244 0.9871593 1.011148 0.9434943
000210 18 37 7b 3f 38 9d 6a 3f 2e 45 6c 3f df 35 77 3f
       0.9813094 0.91646147 0.9229306 0.96566576
000220 c6 80 6b 3f 64 a9 6e 3f f1 fb 6f 3f 02 f8 79 3f
       0.9199337 0.9322722 0.9374381 0.97644055
000230 86 80 73 3f 92 7d 6f 3f a5 c5 73 3f a8 7f 73 3f
       0.95117986 0.9355098 0.95223457 0.9511666
000240 4e 01 6d 3f a6 7f 71 3f 4d f5 6e 3f 5c 8a 78 3f
       0.92580116 0.943354 0.9334305 0.9708612
000250 d7 fe 78 3f 6c 50 73 3f dd 71 73 3f 05 4e 6e 3f
       0.97263855 0.9504459 0.95095617 0.930878
000260 fa f2 6a 3f 91 79 7f 3f 4c 10 72 3f 3f 5d 71 3f
       0.91777 0.9979487 0.9455612 0.9428291
000270 ba e5 78 3f a9 84 74 3f d1 d2 7c 3f 38 09 71 3f
       0.97225535 0.95514923 0.9875918 0.9415469
000280 73 30 70 3f 74 07 7b 3f 49 3f 7c 3f ac 3b 69 3f
       0.9382393 0.9805825 0.98534065 0.9110668
000290 48 67 74 3f e9 fa 7e 3f 88 f4 76 3f 11 03 72 3f
       0.95470095 0.9960161 0.96466875 0.9453593
0002a0 0f 7f 65 3f f6 1f 6e 3f 02 97 79 3f ad d1 6f 3f
       0.89647 0.9301752 0.97496045 0.93679315
0002b0 49 52 78 3f c1 d3 7e 3f 1a e7 80 3f 4b 43 76 3f
       0.9700056 0.9954186 1.0070527 0.9619643
0002c0 0a a1 72 3f 0c 15 6a 3f 4b 0b 81 3f 52 87 75 3f
       0.94776976 0.91438365 1.0081571 0.9590961
0002d0 e0 e9 73 3f ad 43 6d 3f f4 f9 79 3f 8f 94 6b 3f
       0.9527874 0.9268139 0.97647023 0.9202356
0002e0 62 d8 7b 3f 60 4c 73 3f b7 1b 81 3f f8 28 6e 3f
       0.9837705 0.95038414 1.0086583 0.93031263
0002f0 3e 1b 73 3f 7e a1 76 3f 75 0b 74 3f 52 c8 79 3f
       0.94963443 0.9634017 0.9532998 0.9757129
000300 c7 dc 6e 3f e4 e9 71 3f ab a7 74 3f a2 8f 72 3f
       0.9330563 0.94497514 0.9556834 0.94750416
000310 e9 d6 81 3f 5b 06 78 3f 32 75 6f 3f 52 70 76 3f
       1.014371 0.968847 0.935382 0.9626514
000320 11 87 7b 3f e0 95 71 3f f9 d1 62 3f 3e 4c 77 3f
       0.9825297 0.94369316 0.8860164 0.9660071
000330 93 3f 70 3f 89 ad 6f 3f 78 ec 6c 3f e7 85 71 3f
       0.93847007 0.9362417 0.9254832 0.94344944
000340 3d de 5f 3f 94 1d 77 3f 73 e5 73 3f 3e 21 71 3f
       0.87448484 0.9652951 0.95271987 0.9419135
000350 6f 10 73 3f e4 b8 70 3f 8d f0 6e 3f cb 28 7a 3f
       0.9494695 0.9403212 0.933358 0.97718495
000360 62 98 72 3f 0d c8 66 3f 52 77 70 3f ca ca 70 3f
       0.9476377 0.90149003 0.9393207 0.9405943
000370 d4 ce 75 3f e4 81 69 3f e9 0a 75 3f b7 6d 80 3f
       0.9601872 0.9121382 0.9571977 1.0033482
000380 49 b4 82 3f 58 56 6f 3f 64 f4 70 3f 35 d8 70 3f
       1.0211269 0.93491125 0.9412291 0.94079906
000390 03 64 7b 3f df d6 73 3f 4c 5f 62 3f 4e b7 7b 3f
       0.9819948 0.9524974 0.8842666 0.98326576
0003a0 49 a9 79 3f 7f 57 72 3f de 22 79 3f dc 17 83 3f
       0.97523934 0.9466476 0.9731883 1.0241656
0003b0 a1 40 71 3f 9a c7 78 3f 76 9e 79 3f ed 69 6d 3f
       0.9423924 0.9717957 0.9750742 0.92739755
0003c0 e4 de 74 3f 5c 41 6d 3f 82 d2 7b 3f 3c d8 76 3f
       0.95652604 0.92677855 0.98368084 0.964237
0003d0 2c 13 6e 3f 5f dc 76 3f f3 94 79 3f 6f 7c 82 3f
       0.92998004 0.9643001 0.97492903 1.0194224
0003e0 f2 c0 79 3f a0 e7 6e 3f 19 a1 76 3f 71 e0 76 3f
       0.97560036 0.9332218 0.96339566 0.9643622
0003f0 b1 96 7f 3f c4 43 76 3f 94 8d 74 3f a4 1d 7d 3f
       0.9983931 0.9619715 0.9552853 0.98873353

network.1.bias f4 [256]
000000 09 7f 89 3c 50 8a 17 3a c0 79 c0 bc bb b8 b8 bc
       0.016784208 0.0005780803 -0.023495555 -0.022549024
000010 08 85 94 bb ee a5 e0 3c db ad 21 bd f0 f7 23 3c
       -0.00453246 0.027422871 -0.039472442 0.010007843
000020 c4 42 3b ba de cf 8e bd c1 0b 04 3d 3e 8b 7c 3c
       -0.0007143433 -0.06973241 0.032237772 0.015414057
000030 a7 29 2e 3d e6 6e 36 bd 81 51 95 3c b6 ab 85 bc
       0.04252019 -0.044539355 0.01822734 -0.01631723
000040 5f a1 55 bc 55 56 d5 3b 14 ca b5 bc 9a e6 96 bc
       -0.013038962 0.0065105357 -0.022191085 -0.018420506
000050 01 a0 5f bd b8 83 3c bb 1e b4 e2 ba d3 14 5e bc
       -0.05459595 -0.0028765034 -0.0017296111 -0.01355477
000060 bd 41 1c bd bc 95 00 bd 27 02 4d bd ae 76 a2 3c
       -0.03814863 -0.031392798 -0.05005088 0.019831982
000070 9f ef 36 bd 4b 25 b3 3b 0d 6b 22 bd c4 65 d8 3c
       -0.044662114 0.005467092 -0.039652873 0.026415713
000080 23 35 8d 3c 5a 23 1d 3d 97 df ed 3c 60 96 1f bc
       0.017237252 0.038363792 0.02903728 -0.009740442
000090 23 c9 d1 bb 78 74 fc ba ea e6 3c bb c2 c3 8e bc
       -0.006402151 -0.0019260785 -0.002882416 -0.017427329
0000a0 59 97 50 bc 77 a8 bd bb 7b 0d b5 bc 59 44 c2 3c
       -0.012731397 -0.005787905 -0.022101155 0.023714231
0000b0 9e 56 cc bc a8 70 94 ba 2e 61 8b 3b 01 92 bb bc
       -0.024943646 -0.0011325078 0.004253528 -0.022896769
0000c0 b5 07 da bc 7c 9f b1 bb f3 25 8f bb 4a 60 be ba
       -0.026615003 -0.0054206233 -0.0043685376 -0.0014524546
0000d0 76 78 0a ba 05 19 6a 3d 62 a4 32 3d 85 0b ec bc
       -0.00052822323 0.057152767 0.0436138 -0.028814087
0000e0 89 fc e1 3b 9b 4f 19 bb 77 76 f1 3c 89 4b 7f 3c
       0.0068965596 -0.0023393396 0.029475434 0.015581974
0000f0 7a 28 f7 bc 8a 1a e8 3c ae 1a 45 bc 88 44 a1 bc
       -0.030170668 0.028332967 -0.012030287 -0.019685999
000100 37 0e 87 bc 9a 0c 57 bc 6a df 26 bd ca 0e 0e bd
       -0.01648627 -0.013125563 -0.040740408 -0.034682073
000110 59 06 5c bd f5 9a d2 bc a1 e2 d9 3c c8 4d 99 3a
       -0.05371699 -0.025708655 0.026597323 0.0011696154
000120 b4 0e ae 3c e2 a8 e1 bc 7a 91 ce bc b8 27 77 3c
       0.021247245 -0.02754635 -0.025215853 0.015085153
000130 8e 43 e6 bc 8f 6e 88 bc 7c 93 1b 3c 82 f9 26 bd
       -0.028108384 -0.016654281 0.009495612 -0.040765293
000140 73 02 2e bd 86 e7 de bc b4 da 9a 3c a4 9c b3 3b
       -0.042482805 -0.027210008 0.018903114 0.0054813195
000150 dd 2b bb bc 7b bf 0b bd 18 38 9b bb fc 42 16 3c
       -0.022848064 -0.034118157 -0.0047369115 0.009171244
000160 d7 a4 ca bc 23 68 1e 3c 61 3e e5 bc 0b 8d 8e bc
       -0.024736805 0.009668383 -0.027983846 -0.017401239
000170 9e b9 90 bd 9f a6 8a 3c 6d a8 09 bd fa a6 36 bd
       -0.07066654 0.016925154 -0.03360789 -0.044592835
000180 66 36 5d 3c 55 b2 28 bc 58 59 3c bb c8 b8 5d 3c
       0.013501739 -0.010296424 -0.0028739776 0.013532825
000190 5a 4e 0d bc 9e 9f 84 bc a4 1f 56 bc bf ff d2 bc
       -0.0086246375 -0.016189393 -0.013069067 -0.025756715
0001a0 4b 64 3e bc 90 3a a5 3b 8c 05 3b 3d 5d 1b dd bb
       -0.011620591 0.0050423816 0.045659587 -0.0067476467
0001b0 c9 8b c4 bc 6f bd 0e bd 70 5c f3 3c 65 b1 31 3c
       -0.023992436 -0.034848627 0.029707164 0.010845517
0001c0 e1 2d c4 b9 55 3e 21 3c 29 96 15 bd 00 be ab ba
       -0.00037418216 0.009841521 -0.036520157 -0.0013102889
0001d0 72 6d fd bc b9 33 f9 bc 6e 15 c7 bc db b9 bd 39
       -0.030935977 -0.030420171 -0.02430221 0.00036187362
0001e0 d7 67 c1 bc 5b 57 26 3d e3 e6 19 3a 9e 9b e1 bc
       -0.023609085 0.040610652 0.00058708916 -0.027540024
0001f0 85 b1 77 bc 68 1f b6 bc b3 c4 3c bd 7c 37 2c ba
       -0.015118008 -0.022231773 -0.046086024 -0.0006569547
000200 02 f9 86 bc 82 09 f9 bb 9c 8c 01 3d 85 88 99 3c
       -0.016476158 -0.0076000104 0.031628236 0.018741855
000210 6f c5 6c 3c 90 89 ba bc 75 67 16 bd 5d da 58 ba
       0.014451369 -0.022770673 -0.036719758 -0.0008272285
000220 c2 a4 03 bc 50 75 33 ba a2 69 e8 bc 9f 93 7c 3d
       -0.008034887 -0.0006845789 -0.028370682 0.06166422
000230 cf 04 11 bc f9 4b fe bc ce 71 e7 bc 78 28 6a bd
       -0.008851244 -0.031042086 -0.028252508 -0.0571675
000240 f4 d2 8b bc 3f 53 4c bd a9 55 71 3c 15 63 0b bd
       -0.017068364 -0.049884077 0.014729896 -0.03403004
000250 93 93 f3 bc bd 50 aa 3a b4 66 9e 3c 6c fb 08 bd
       -0.029733455 0.0012994033 0.019336082 -0.0334429
000260 d9 c1 c5 bc 1c 04 cd 3c 63 0b 8b 3b 32 dd a2 3c
       -0.024140285 0.025026374 0.0042433008 0.019880865
000270 bb 79 47 3d 57 9f c3 bc 1c ac 1a 3d f9 4e 9a bb
       0.048700076 -0.02387969 0.037761793 -0.0047091213
000280 92 73 a5 bc e2 1f 07 bd 81 37 c4 3b 20 cd d7 bc
       -0.02019671 -0.03298939 0.005988062 -0.026342928
000290 5f f8 02 3c de 44 6a bc df a8 81 bb 40 c4 c7 bc
       0.007993787 -0.014298646 -0.0039568986 -0.024385571
0002a0 cd 23 5c bd 6d 37 7b bc d6 7a 56 bb 59 cf e0 b9
       -0.05374508 -0.015333039 -0.0032727025 -0.00042879095
0002b0 52 47 a8 bc e7 16 f0 3a d6 6c 1c 3a fd 41 76 bc
       -0.02054182 0.0018317372 0.00059671456 -0.015030381
0002c0 2b 30 65 bc 9f 7f 28 bc 20 70 ae bc f9 33 3e bd
       -0.013988535 -0.0102843335 -0.0212937 -0.046436284
0002d0 61 dc 90 bc 3b 59 5e bc 54 c1 ac 3c 98 9b 65 bb
       -0.01768321 -0.013571079 0.02108828 -0.0035035368
0002e0 42 2b 65 3d 27 c0 6d bd aa f6 e3 bb 32 09 0b 3d
       0.055949457 -0.05804458 -0.006956895 0.033944316
0002f0 fc d7 a2 bc f8 76 09 bd 18 25 38 bd d1 04 c4 3c
       -0.01987838 -0.033560723 -0.04495725 0.023928078
000300 57 c4 3e 3b 0a a9 06 bd 7b ca fd bb 68 e2 8b bc
       0.0029108727 -0.032876052 -0.007745085 -0.017075732
000310 38 9d 46 3c 4e fb 29 bd 1c 6d 8d bc f0 b8 49 bc
       0.012122445 -0.04149943 -0.017263941 -0.012312159
000320 46 7f 32 3d 54 37 53 3c 05 50 61 bd 00 b0 a7 bc
       0.04357841 0.012891609 -0.055007953 -0.020469666
000330 29 28 7a 3b dc c4 f0 bb f1 f7 14 bd c7 fa 6f bc
       0.003817091 -0.007347686 -0.036369268 -0.014647192
000340 d2 44 2c bd 13 93 fc bc 39 db 91 3c a7 45 7a bb
       -0.04205782 -0.03083185 0.017804729 -0.0038188489
000350 59 08 b0 bc b6 1a d2 3c c5 b9 ba bb eb 40 bd bc
       -0.021488355 0.025647502 -0.005698415 -0.023102244
000360 fc 6d c1 bc 9f a4 80 bc 5c c6 66 3c 53 be 0b bd
       -0.023612015 -0.015703497 0.0140853785 -0.034117054
000370 3a 7c f1 bc a0 d7 65 bd b1 16 6b 3c d5 e6 14 3c
       -0.029478181 -0.05611384 0.014348672 0.009088238
000380 e3 aa 03 3d ae 79 cd bb 81 31 01 bd fd 33 d1 39
       0.032145392 -0.006270609 -0.03154135 0.0003990232
000390 b9 86 3c 3d 01 5d d5 3c 1e 0b c5 bc 9b 3e da 3c
       0.04602692 0.026045324 -0.024053153 0.02664118
0003a0 da 71 9a bb cb a3 98 bb 7a 6c b5 3b 0f 09 ca 3c
       -0.004713279 -0.0046581975 0.005536613 0.024662523
0003b0 9b f0 8d bc ed 73 fe 3c 67 9b 6a bc e1 bc 2b bd
       -0.017326644 0.031061137 -0.014319277 -0.041928176
0003c0 d3 f2 c1 3b 79 f6 05 ba 11 ae 91 bb 48 b9 24 bc
       0.0059188395 -0.00051102747 -0.004445799 -0.01005394
0003d0 a3 69 51 3c 90 19 b5 3b 42 c5 48 bc 77 0d 99 3c
       0.012781533 0.005526729 -0.012254061 0.018683178
0003e0 81 30 e6 bb 0b 61 65 bc b3 e3 9f bc 2c ee b6 3b
       -0.007024825 -0.014000188 -0.019517755 0.0055825915
0003f0 b8 f7 e5 3c 1b 3f 93 3b 4c 1c 3a bc f7 f5 3b 3d
       0.028072223 0.0044936067 -0.011359286 0.045888867

network.1.running_mean f4 [256]
000000 cd 45 cc 48 81 0a 24 c9 17 8b ae 48 a5 39 24 ca
       418350.4 -671912.06 357464.72 -2.6906652e+06
000010 5c 5b 0c c9 a4 46 c0 ca fe 1e 91 49 50 dd 0d 49
       -574901.75 -6.300498e+06 1.1888318e+06 581077.0
000020 64 85 e7 48 37 5d 43 c9 aa 0a fd 48 90 a2 d0 49
       474155.12 -800211.44 518229.3 1.709138e+06
000030 09 ca 98 c9 68 43 82 4a 3b 2d 02 49 7e ec a0 48
       -1.2516491e+06 4.268468e+06 533203.7 329571.94
000040 b2 22 e2 c8 da b3 33 ca fc 4b e4 c8 ad b9 64 48
       -463125.56 -2.9442465e+06 -467551.88 234214.7
000050 86 e9 a5 c8 87 b6 f6 48 04 60 aa 4a c6 f1 71 4a
       -339788.2 505268.22 5.58285e+06 3.9640175e+06
000060 3e 0a b2 49 34 4f a8 c8 d8 b6 75 4a b2 c8 72 49
       1.4585038e+06 -344697.62 4.025782e+06 994443.1
000070 b6 c6 e3 49 0a e5 22 ca 8f fb a9 c8 ff 52 7d ca
       1.8659428e+06 -2.6688665e+06 -348124.47 -4.1504638e+06
000080 03 50 f8 c8 2c dc d9 c8 d3 5c 05 ca 1f 09 b8 48
       -508544.1 -446177.38 -2.1850128e+06 376904.97
000090 b3 1d b5 48 58 ae c4 c9 c0 5e 28 ca 04 c0 00 4a
       370925.6 -1.611211e+06 -2.758576e+06 2.109441e+06
0000a0 3f 24 9f c9 91 e8 fa 48 f3 47 1e 4a 07 d5 87 49
       -1.3036879e+06 513860.53 2.5932768e+06 1.1127369e+06
0000b0 9f b5 89 4a ee 5c d1 c8 3f 1a f9 49 2c 9e 2d 48
       4.5124635e+06 -428775.44 2.0406479e+06 177784.69
0000c0 03 83 36 c9 f8 af 45 4a 33 9c b1 49 ce 65 26 c9
       -747568.2 3.23891e+06 1.4549824e+06 -681564.9
0000d0 34 00 46 ca 3d 6d 70 ca 9b 53 a4 c8 ce 3c a3 48
       -3.244045e+06 -3.9391512e+06 -336540.84 334310.44
0000e0 c1 ea 00 49 13 80 96 49 99 68 ba c8 a1 f8 bb c9
       528044.06 1.2328984e+06 -381764.78 -1.5398601e+06
0000f0 02 9f 8b c9 74 a5 32 c8 13 3c fa 49 dd ad 00 4a
       -1.1437762e+06 -182933.81 2.0499224e+06 2.1082792e+06
000100 cb 47 87 ca 5f 38 1e ca a1 d2 b2 c8 65 86 72 c8
       -4.4328695e+06 -2.5922798e+06 -366229.03 -248345.58
000110 e8 68 9d 4a 6a 0b e7 48 ae 3f b5 ca 92 82 00 c9
       5.158004e+06 473179.3 -5.939159e+06 -526377.1
000120 04 68 19 49 d8 eb ba c8 c3 22 95 48 93 07 a3 49
       628352.25 -382814.75 305430.1 1.3355384e+06
000130 52 20 00 49 48 9c 9b c8 f8 c5 95 c9 af e6 3a c8
       524805.1 -318690.25 -1.226943e+06 -191386.73
000140 64 fe 96 c8 8a e7 22 4a 9e 6a 2b 49 84 59 7f ca
       -309235.12 2.6690265e+06 702121.9 -4.183649e+06
000150 1e be a0 4a b9 b9 73 48 32 ca 0d c9 da 92 b3 c8
       5.267215e+06 249574.89 -580771.1 -367766.8
000160 31 d7 36 4a 24 2e 8c ca 44 ef aa c9 3c 8e 22 ca
       2.9956602e+06 -4.593426e+06 -1.4002965e+06 -2.663311e+06
000170 c9 2f 07 49 93 0f eb c9 25 fc fb 48 44 6f e0 c8
       553724.56 -1.9256184e+06 516065.16 -459642.12
000180 f5 8a a9 c9 cc 15 34 49 c3 1d 83 49 ca 65 1c 49
       -1.3888946e+06 737628.75 1.0741044e+06 640604.6
000190 d6 50 12 c9 5f 38 c4 47 c8 a0 ef 49 8f d8 b2 c7
       -599309.4 100464.74 1.963033e+06 -91569.12
0001a0 4c 91 3d ca 6c eb d3 c9 95 fd e9 c9 4f 80 51 4a
       -3.105875e+06 -1.7360455e+06 -1.9168506e+06 3.4324678e+06
0001b0 c0 ff 7c 48 84 35 97 c8 5a dc 9c 49 8d d9 1c ca
       259071.0 -309676.12 1.2850032e+06 -2.5698272e+06
0001c0 f3 1e 8d c9 49 c7 15 4a 02 ba 98 48 f7 f8 0f c9
       -1.1560624e+06 2.4539702e+06 312784.06 -589711.44
0001d0 12 ef b2 48 50 72 4d 49 c3 38 3c 49 56 b3 4d c8
       366456.56 841509.0 770956.2 -210637.34
0001e0 3f a6 72 4a a4 47 20 49 5a 66 31 c8 58 0e 02 cb
       3.9755678e+06 656506.25 -181657.4 -8.523352e+06
0001f0 1a ae 3b c9 cc ce aa c8 e8 45 c6 49 9c 33 6e 49
       -768737.6 -349814.38 1.624253e+06 975673.75
000200 3d f1 2f ca 3c f9 59 49 ec 43 78 c9 aa 6a b1 c8
       -2.8826392e+06 892819.75 -1.01689475e+06 -363349.3
000210 7a 35 3d 4a ab 71 37 c9 4f c5 2a c9 49 4b e2 49
       3.0999985e+06 -751386.7 -699476.94 1.8538011e+06
000220 fc 2e 88 48 ef 6a 55 ca 3f 00 a8 ca 5c 44 a8 c9
       278903.88 -3.4966358e+06 -5.5050555e+06 -1.3784435e+06
000230 17 db 8e 4a 6f 53 46 ca cd 34 96 c8 60 90 a2 48
       4.6810995e+06 -3.2493718e+06 -307622.4 332931.0
000240 15 eb 0b c9 b7 f5 9a 48 b1 8b 3a ca f7 7a b2 c8
       -573105.3 317357.72 -3.0563642e+06 -365527.72
000250 a2 dc a4 4a f2 d6 72 48 66 60 a4 c9 e4 f9 e3 48
       5.402193e+06 248667.78 -1.3465728e+06 466895.12
000260 4a 3f 46 c8 d4 23 5c c9 a9 62 8b c9 ac b6 d1 ca
       -203005.16 -901693.25 -1.1418451e+06 -6.871894e+06
000270 8b 4f 05 cb e6 8d d3 48 c5 3a ee c9 36 97 d4 c8
       -8.736651e+06 433263.2 -1.9515766e+06 -435385.7
000280 fa f6 90 48 c3 43 2e 4a 73 dd 16 ca 3b bb b5 c9
       296887.8 2.8551528e+06 -2.4717728e+06 -1.4887434e+06
000290 e5 36 86 c9 6e e6 74 c9 56 59 f4 4a c4 a1 f3 c9
       -1.0994846e+06 -1.0031109e+06 8.006827e+06 -1.9958325e+06
0002a0 39 84 be c8 23 80 f9 c9 d8 7d 1d 49 1e 21 8c 48
       -390177.78 -2.0439084e+06 645085.5 286984.94
0002b0 77 81 dc 49 56 b6 67 48 89 3e 6e 4a 1d ce 96 49
       1.8063829e+06 237273.34 3.9033942e+06 1.2353956e+06
0002c0 0c 77 78 49 74 e2 32 c8 92 d8 51 c9 e8 6d 5d 49
       1.01771275e+06 -183177.81 -859529.1 906974.5
0002d0 22 25 2a c8 7c da 38 4a a0 84 44 4a 9d 3d 20 c9
       -174228.53 3.028639e+06 3.219752e+06 -656345.8
0002e0 b0 41 d6 ca af b6 d2 48 37 d3 92 48 21 57 ff c8
       -7.02076e+06 431541.47 300697.72 -522937.03
0002f0 34 bb 0c 4a 25 a6 b6 c9 11 60 ca 4a ba 73 49 ca
       2.305741e+06 -1.4962606e+06 6.6314325e+06 -3.3005905e+06
000300 f9 ed d3 48 7f bf 7c 48 c4 66 14 ca 99 c9 8c 48
       434031.78 258813.98 -2.431409e+06 288332.78
000310 a0 c3 89 49 52 8d 83 49 41 5b fc c8 50 16 06 c9
       1.128564e+06 1.0776742e+06 -516826.03 -549221.0
000320 37 b6 05 cb e7 e8 b6 48 8c 36 3c ca dd 57 8c 48
       -8.762935e+06 374599.22 -3.083683e+06 287422.9
000330 3d a3 95 c9 4d f8 04 cb 47 c2 10 c9 3e 8e 59 49
       -1.2258316e+06 -8.714317e+06 -592932.44 891107.9
000340 bf ea 9a 49 9e 8f 18 49 68 06 75 ca f5 e7 da c9
       1.2690799e+06 624889.9 -4.01449e+06 -1.7932786e+06
000350 18 93 4e 4a d6 d4 23 48 e1 33 48 48 3c a2 d6 48
       3.384518e+06 167763.34 205007.52 439569.88
000360 34 4b 25 4a fa b9 19 ca b5 23 8c c9 50 09 09 ca
       2.708173e+06 -2.5186545e+06 -1.1480226e+06 -2.245204e+06
000370 d7 94 98 4a 87 54 ef 48 8d 4a 8d 48 fd 6e 61 48
       4.9997875e+06 490148.22 289364.4 230843.95
000380 c4 2d 93 c9 a3 bc a8 48 24 1a f1 49 92 58 b2 c8
       -1.2056885e+06 345573.1 1.9751085e+06 -365252.56
000390 f7 b3 25 ca 40 54 11 ca c0 f4 c0 ca 31 79 bf c8
       -2.7148778e+06 -2.381072e+06 -6.322784e+06 -392137.53
0003a0 d6 68 c4 4a 27 92 ea c8 0a df 1f 49 e1 8d 16 49
       6.435947e+06 -480401.22 654832.6 616670.06
0003b0 53 5c 84 c8 4f 95 2b c9 e7 ba ac 49 be 19 8e c8
       -271074.6 -702804.94 1.4150049e+06 -291021.94
0003c0 a5 f0 4a 49 9e e3 b3 48 96 c4 94 4a 8a 42 5f c9
       831242.3 368412.94 4.874827e+06 -914472.6
0003d0 fd 2a 54 c9 a8 53 e3 48 a0 c0 ef 48 e6 7d cb 48
       -869039.8 465565.25 491013.0 416751.2
0003e0 ac 01 a8 4a 26 05 09 4a bf 9e 81 48 70 4c a9 4a
       5.505238e+06 2.2449375e+06 265461.97 5.547576e+06
0003f0 b3 3a ff 4a 26 29 d2 c8 0c 79 90 49 f1 b7 51 49
       8.3633535e+06 -430409.2 1.1835215e+06 859007.06

network.1.running_var f4 [256]
000000 52 3b 50 51 a0 4a 06 52 97 f8 18 51 25 93 06 54
       5.5896777e+10 1.441944e+11 4.1062855e+10 2.3119772e+12
000010 27 a4 c4 51 5f 78 38 55 33 2d d2 52 62 de c8 51
       1.0557095e+11 1.2676696e+13 4.5135072e+11 1.0784055e+11
000020 b8 ba 85 51 70 76 3e 52 5a d5 9f 51 7b 37 59 53
       7.179541e+10 2.0450771e+11 8.5809906e+10 9.329387e+11
000030 5f fb e8 52 68 56 a9 54 52 3f a9 51 2b 3f 01 51
       5.0032486e+11 5.818393e+12 9.086398e+10 3.469441e+10
000040 55 28 7f 51 88 22 21 54 d9 07 82 51 3d dd 82 50
       6.8493332e+10 2.7682763e+12 6.980968e+10 1.7564297e+10
000050 f7 62 09 51 cc ed 97 51 f9 d6 10 55 87 0b 92 54
       3.687943e+10 8.15662e+10 9.953311e+12 5.018069e+12
000060 9d 2c 1e 53 1b 5d 0d 51 d5 a0 96 54 3b 12 93 52
       6.793533e+11 3.7947027e+10 5.1755473e+12 3.1583302e+11
000070 fe 71 81 53 1a 68 04 54 a4 2c 10 51 b3 1b a0 54
       1.1119265e+12 2.274729e+12 3.8701515e+10 5.501276e+12
000080 f8 e1 99 51 dd df 6c 51 c6 7e b1 53 ba 8a 32 51
       8.261514e+10 6.3585505e+10 1.5246722e+12 4.7926977e+10
000090 eb d9 23 51 f5 07 41 53 6d 73 0d 54 0c 6d a5 53
       4.3983483e+10 8.290622e+11 2.4301076e+12 1.4209982e+12
0000a0 bd c1 fc 52 cb 17 9d 51 45 05 fa 53 8c 24 b8 52
       5.4279107e+11 8.433863e+10 2.1476605e+12 3.9544357e+11
0000b0 af 40 bd 54 bc cc 5a 51 0a d1 9a 53 a0 b5 16 50
       6.502672e+12 5.873361e+10 1.3298641e+12 1.0113942e+10
0000c0 8d 3b 26 52 46 00 43 54 40 68 1d 53 d0 29 0a 52
       1.7849092e+11 3.3500928e+12 6.760589e+11 1.4835175e+11
0000d0 ec 9f 43 54 18 37 90 54 a3 bd 06 51 5f b3 05 51
       3.3608067e+12 4.955197e+12 3.61692e+10 3.589e+10
0000e0 76 d5 a5 51 80 0c e2 52 f6 68 2d 51 23 4e 30 53
       8.903136e+10 4.8543616e+11 4.6549393e+10 7.5722516e+11
0000f0 6b 8f c2 52 26 eb 1f 50 07 39 9c 53 89 40 a5 53
       4.178149e+11 1.0731952e+10 1.3419433e+12 1.4195046e+12
000100 51 a2 b6 54 4e d2 f9 53 d5 9b 1f 51 47 b7 92 50
       6.275258e+12 2.1459504e+12 4.284464e+10 1.9691878e+10
000110 ed 44 f7 54 18 28 85 51 97 eb 23 55 02 d5 a4 51
       8.4961064e+12 7.148791e+10 1.1264515e+13 8.849354e+10
000120 f9 f0 ea 51 01 5f 2e 51 c3 5d de 50 b6 a2 04 53
       1.2613315e+11 4.680739e+10 2.9845494e+10 5.696655e+11
000130 20 f7 a3 51 70 23 f2 50 c3 e3 df 52 e0 91 2e 50
       8.802822e+10 3.249927e+10 4.8079946e+11 1.1715183e+10
000140 3d 8e e3 50 7e 6b 04 54 cf 9f 12 52 db ac a2 54
       3.0541998e+10 2.2749564e+12 1.574366e+11 5.589478e+12
000150 2a ed 00 55 43 9e 95 50 77 aa c8 51 3f 19 21 51
       8.859756e+12 2.0081416e+10 1.0773167e+11 4.324458e+10
000160 5a cf 26 54 2b 1b c4 54 68 cd 11 53 85 da 03 54
       2.8657734e+12 6.738155e+12 6.262164e+11 2.2652275e+12
000170 a5 5d b6 51 0e db 89 53 56 5d 9e 51 6c 6e 7b 51
       9.790689e+10 1.1841713e+12 8.502134e+10 6.7493085e+10
000180 f7 6e 0f 53 9d d3 21 52 3b 95 ab 52 6e 20 f4 51
       6.16042e+11 1.7376e+11 3.6847154e+11 1.3106451e+11
000190 14 b1 d5 51 bf 33 06 50 df 43 8f 53 7e 7c 22 4f
       1.1472486e+11 9.006153e+09 1.230638e+12 2.7260677e+09
0001a0 7e 4f 33 54 23 19 60 53 6d 99 88 53 29 02 5b 54
       3.0805312e+12 9.624944e+11 1.1733792e+12 3.7625363e+12
0001b0 26 c6 9f 50 52 6a e4 50 dd 8f f5 52 7f 84 f5 53
       2.1444506e+10 3.0657384e+10 5.273403e+11 2.1089798e+12
0001c0 3b c1 c6 52 ec e1 df 53 31 dc f6 50 0f de ce 51
       4.268227e+11 1.9231361e+12 3.3133005e+10 1.110611e+11
0001d0 d7 b7 1f 51 67 a1 52 52 e3 c4 30 52 d4 25 53 50
       4.2874008e+10 2.2616275e+11 1.8980436e+11 1.4169887e+10
0001e0 68 e5 92 54 c7 31 00 52 87 3a 1e 50 44 cc a8 55
       5.047312e+12 1.3764773e+11 1.0618543e+10 2.3199408e+13
0001f0 1e c9 2f 52 12 98 11 51 3b 2c 44 53 31 93 8d 52
       1.8874837e+11 3.90826e+10 8.4255565e+11 3.0402993e+11
000200 b8 76 1a 54 dd 12 6d 52 b0 c8 99 52 78 1b 1d 51
       2.653667e+12 2.5455593e+11 3.302485e+11 4.217317e+10
000210 c0 a1 32 54 d7 f6 27 52 c0 8a 11 52 95 8a 7f 53
       3.0688716e+12 1.803502e+11 1.5627452e+11 1.0975417e+12
000220 7d 11 b9 50 a4 45 63 54 44 d5 0c 55 fc 48 0d 53
       2.4839449e+10 3.9045038e+12 9.677975e+12 6.0681486e+11
000230 8c a8 cb 54 0e 43 44 54 d7 2f e1 50 fb 34 04 51
       6.997649e+12 3.3717543e+12 3.022407e+10 3.5489034e+10
000240 27 79 c3 51 02 3a f1 50 80 a3 2d 54 e4 06 1f 51
       1.049439e+11 3.2376885e+10 2.9830897e+12 4.2688463e+10
000250 1d 9e 07 55 e0 32 93 50 cd d4 06 53 26 b2 81 51
       9.319573e+12 1.975668e+10 5.790958e+11 6.962995e+10
000260 c4 17 44 50 84 d6 71 52 2d e8 c1 52 e7 72 5b 55
       1.3159567e+10 2.5967152e+11 4.1641198e+11 1.5080409e+13
000270 1c 5a b1 55 51 54 5f 51 d0 98 8d 53 0c 84 61 51
       2.4375072e+13 5.994952e+10 1.2163083e+12 6.053644e+10
000280 cb ec d2 50 ae 88 17 54 88 25 e3 53 f6 cc 24 53
       2.830987e+10 2.6033327e+12 1.9511745e+12 7.078133e+11
000290 13 c5 b3 52 57 a5 95 52 a9 f5 94 55 f7 18 94 53
       3.8605275e+11 3.2136203e+11 2.0472853e+13 1.272148e+12
0002a0 e8 31 35 51 b5 4e 9b 53 a4 8f f7 51 50 f3 c3 50
       4.863915e+10 1.3340808e+12 1.3290835e+11 2.6300023e+10
0002b0 1b 9e 72 53 3b 75 86 50 85 9c 8d 54 e2 f5 e2 52
       1.04203466e+12 1.8046638e+10 4.865731e+12 4.8739392e+11
0002c0 df 06 9a 52 5a d9 20 50 3b c0 5b 52 39 a9 74 52
       3.3077012e+11 1.0794396e+10 2.3595573e+11 2.6270278e+11
0002d0 b8 84 10 50 b1 81 2a 54 40 b3 40 54 a3 20 00 52
       9.698468e+09 2.9292812e+12 3.3105641e+12 1.3757584e+11
0002e0 36 0f 65 55 c4 8d 5d 51 fe 13 d7 50 4e b3 a2 51
       1.5740843e+13 5.9472888e+10 2.8867293e+10 8.734912e+10
0002f0 b7 a7 c5 53 65 78 26 53 0e 5c 4c 55 a8 80 4a 54
       1.6978447e+12 7.1498446e+11 1.4043484e+13 3.4789675e+12
000300 47 89 60 51 22 61 9f 50 bf c8 db 53 a9 6b c8 50
       6.0273488e+10 2.1391544e+10 1.8879316e+12 2.689999e+10
000310 3e 6d bd 52 36 b7 ac 52 b4 f2 9e 51 28 6f b3 51
       4.067908e+11 3.7090407e+11 8.533459e+10 9.6333005e+10
000320 bb 6b b2 55 e6 fb 26 51 20 c3 30 54 6f 91 c4 50
       2.4521971e+13 4.482442e+10 3.0367516e+12 2.6382924e+10
000330 36 76 df 52 5a 72 b0 55 5e 34 d1 51 bc 30 6c 52
       4.7988048e+11 2.4250648e+13 1.1231584e+11 2.5360748e+11
000340 10 85 ef 52 d5 37 e8 51 68 c9 95 54 f6 1f 6f 53
       5.143648e+11 1.2467114e+11 5.1466333e+12 1.0270334e+12
000350 d7 ee 54 54 1e 18 08 50 39 6e 48 50 16 e4 65 51
       3.6581605e+12 9.133128e+09 1.3450667e+10 6.1710885e+10
000360 a5 55 08 54 2d d7 eb 53 38 fe c3 52 06 6a bb 53
       2.3422097e+12 2.0258547e+12 4.2089185e+11 1.6098753e+12
000370 92 55 e8 54 85 ed 8e 51 b2 37 c7 50 c9 fb 7d 50
       7.9829444e+12 7.673378e+10 2.6738528e+10 1.7044547e+10
000380 83 35 d8 52 ab 6b 24 51 3a 09 91 53 0a bf 1e 51
       4.6430536e+11 4.4136313e+10 1.2458501e+12 4.261312e+10
000390 4b 01 09 54 85 c5 d2 53 30 c7 39 55 0c 02 37 51
       2.3537288e+12 1.8105139e+12 1.2766572e+13 4.9125835e+10
0003a0 cc 7c 40 55 c2 46 89 51 c7 43 ff 51 21 50 e2 51
       1.3227639e+13 7.3699705e+10 1.3704422e+11 1.2150087e+11
0003b0 f8 f3 ae 50 e1 e5 12 52 e6 e1 14 53 cc 9d c9 50
       2.3481795e+10 1.5773049e+11 6.394451e+11 2.7060494e+10
0003c0 34 a1 4d 52 0c d0 21 51 7a dd dc 54 5c b6 78 52
       2.2079321e+11 4.343626e+10 7.5888685e+12 2.6705284e+11
0003d0 8b a4 60 52 43 f6 80 51 cf 85 8f 51 a4 f2 4e 51
       2.4120831e+11 6.9235925e+10 7.705316e+10 5.555213e+10
0003e0 39 d7 0c 55 be 5d bb 53 f4 c1 a7 50 11 04 0f 55
       9.6785e+12 1.6094632e+12 2.2516048e+10 9.827977e+12
0003f0 1c 85 a2 55 a6 7a 5c 51 fe 4d d0 52 f8 74 5b 52
       2.2336573e+13 5.9184407e+10 4.4733084e+11 2.3564006e+11
