best_model.pth (torch, 5622 bytes, 8 tensors)

network.0.weight f4 [32, 5]
0	0xbda6d022	-0.08145167
1	0xbd8b910a	-0.068147734
2	0x3c6cbc7f	0.014449238
3	0x39ceec24	0.0003946732
4	0xbd62f72f	-0.055411514
5	0xbcf496ce	-0.029857066
6	0x3ded2bfb	0.11580654
7	0xbcf6e528	-0.030138567
8	0x3d15fef5	0.0366201
9	0x3be56ee2	0.0070017437
10	0x3d4a94dc	0.04945837
11	0xbda8a9f1	-0.08235539
12	0x3d673afe	0.056452744
13	0xbc07e1eb	-0.008293609
14	0xbba944cc	-0.005165672
15	0x3d85dd6f	0.06536376
16	0xbcbb209c	-0.022842698
17	0x3cc3608f	0.023849754
18	0xbd8ec2b4	-0.069707304
19	0x3d610450	0.054935753
20	0xbd5e323f	-0.054247137
21	0xbdd4481c	-0.10365316
22	0xbc9f60e9	-0.01945539
23	0x3cca0fc4	0.02466572
24	0xbbe9d65c	-0.0071361493
25	0x3cbe82a0	0.023255646
26	0x3deaf451	0.11472381
27	0xbc22a8a3	-0.009927901
28	0xbcd1d7c1	-0.025615575
29	0x3c742fe3	0.014903995
30	0x3da90bda	0.08254214
31	0x3ce13264	0.027489848
32	0x3c632ca8	0.013865627
33	0xbcbd16b3	-0.023082113
34	0xbbdd78d5	-0.006758789
35	0xbd8a2e54	-0.06747118
36	0xbdb16588	-0.08661944
37	0xbd16c9df	-0.036813613
38	0xbd127caa	-0.03576342
39	0xbcd72ca6	-0.026266407
40	0xbd8a5179	-0.06753821
41	0xbdc63925	-0.09678868
42	0x3c7e49e4	0.015520547
43	0xbca0fac4	-0.019650824
44	0xbbcdc6b6	-0.0062797917
45	0x3dcf3b5d	0.101187445
46	0xbbdc0a8b	-0.006715124
47	0x3c906dec	0.01763054
48	0xbd9b0ddf	-0.07571005
49	0x3a07479a	0.0005160511
50	0x3d81e9a0	0.063433886
51	0x3dab5c6a	0.08367236
52	0x3cdc8cfd	0.026922697
53	0x3cfc04f4	0.03076408
54	0xbcba2b58	-0.022725746
55	0x3dbbcb0c	0.091695875
56	0x3d2fff5f	0.04296815
57	0x3cbcaff2	0.023033116
58	0xbd430c10	-0.047618926
59	0x3cf88ad4	0.030339636
60	0xbca17b8c	-0.019712232
61	0xbdcdb135	-0.10043565
62	0xbd079349	-0.033099446
63	0x3c8d25a0	0.017229855
64	0xbcbe60bb	-0.023239484
65	0x3db0a257	0.08624714
66	0xbc8a54b6	-0.016886096
67	0xba5d347c	-0.0008438302
68	0xbd8cfe74	-0.068844706
69	0x3d42904c	0.047500893
70	0xba6ba0e8	-0.00089885155
71	0xbdb186df	-0.08668303
72	0xbb553620	-0.0032533482
73	0xbd8a93f2	-0.067664996
74	0x3c9f068f	0.019412307
75	0x3d94bd79	0.072627015
76	0x3cc6054c	0.024172448
77	0x3d125563	0.035725962
78	0x3cd7c2b7	0.026337964
79	0x3d904b21	0.0704558
80	0xbcc19587	-0.02363087
81	0xbd97f73d	-0.07420204
82	0xbd291f04	-0.041289344
83	0xbd302355	-0.043002445
84	0x3c6c1964	0.0144103505
85	0xbdaefd73	-0.08544435
86	0x3a255e27	0.000630828
87	0xbb747e03	-0.0037306554
88	0x3d81218e	0.06305228
89	0xbc80695c	-0.01567524
90	0xbd5781ae	-0.052613907
91	0x3dbea608	0.09309012
92	0x3c5a997a	0.013342256
93	0x3b9e43f8	0.00482988
94	0xbd264516	-0.04059323
95	0xbcfe66a1	-0.031054797
96	0xbdcf0a90	-0.101094365
97	0xbaca5962	-0.0015438015
98	0xbd62efcd	-0.055404473
99	0xbc26a2ae	-0.010170622
100	0x3da51887	0.08061319
101	0xbd422292	-0.04739625
102	0x3d7d3ea0	0.061827302
103	0xbcef313b	-0.02919828
104	0x3c5cb830	0.013471648
105	0xbe112872	-0.14175585
106	0xbce9806d	-0.028503621
107	0xbbefd45d	-0.007319017
108	0x3cd665db	0.026171615
109	0x39170c40	0.00014405046
110	0x3d0b6d6c	0.0340399
111	0xba3d5f0c	-0.0007223941
112	0x3c873745	0.016505847
113	0xbd59cdd6	-0.053174816
114	0xbd88009f	-0.066407435
115	0xbda34c0c	-0.07973489
116	0xbd334d40	-0.043774843
117	0xbd74d472	-0.059772916
118	0x3cb965fd	0.02263164
119	0x3c60bb16	0.01371648
120	0xbd6b7613	-0.05748565
121	0xbc660b18	-0.014040731
122	0xbdcd1887	-0.10014444
123	0x3bce325d	0.006292625
124	0x3d7665be	0.060155623
125	0x3d6a5ab4	0.057215407
126	0xbbe37ca8	-0.0069423504
127	0x3d54b2c0	0.05192828
128	0xbd64ac26	-0.055828236
129	0x3d57b908	0.052666694
130	0xbda44355	-0.08020655
131	0x3d10bee9	0.035338316
132	0xbb7a7fe4	-0.0038223201
133	0x3d45da52	0.04830391
134	0xbd8c2a36	-0.068439886
135	0xbda637a3	-0.081160806
136	0x3dae4b23	0.08510425
137	0x3d1fa7a9	0.038978253
138	0xbc53ee76	-0.0129352715
139	0x3a06cf90	0.00051426236
140	0x3ad07c6c	0.0015906221
141	0x3cbae600	0.02281475
142	0xbdbc98b7	-0.092088155
143	0xbd0077ed	-0.03136437
144	0xbc719c8a	-0.0147467945
145	0xbd973f2c	-0.07385096
146	0xbd908602	-0.0705681
147	0xba31561c	-0.00067648455
148	0x3c664bce	0.014056159
149	0x3d51fcdf	0.051266547
150	0xbd90c26c	-0.07068333
151	0x3dc7e6c5	0.09760813
152	0xbc20258c	-0.009774577
153	0x3cd75d9b	0.026289752
154	0x3a914bb7	0.0011085187
155	0x3d0b16a3	0.033957135
156	0xbceb14df	-0.028696476
157	0x3d5ebed9	0.054381225
158	0xbd77f3a8	-0.060535103
159	0xbce1cbc7	-0.027562989

network.0.bias f4 [32]
0	0xba615332	-0.0008595466
1	0x3b04a4e2	0.002023988
2	0xba324492	-0.0006800379
3	0xba9d936c	-0.0012022085
4	0xb9bb8db0	-0.00035772985
5	0xbb0092d2	-0.0019618762
6	0xbb4c7508	-0.0031197686
7	0xb9c946b6	-0.0003839039
8	0xbb5d0bec	-0.003372903
9	0x3ad70cea	0.0016407047
10	0xb9946ee0	-0.00028311368
11	0x3926a19c	0.00015891198
12	0x3b206be1	0.0024478363
13	0x3acad044	0.0015473445
14	0xba84e45b	-0.0010138856
15	0xba1349a8	-0.00056185806
16	0x3a1ea746	0.00060521474
17	0x39934148	0.00028086663
18	0xbb11c146	-0.0022240444
19	0xba572648	-0.00082073035
20	0xbabfad8e	-0.0014623867
21	0xb98293c0	-0.00024905615
22	0x3ad0e5d3	0.0015937634
23	0x3ac12760	0.0014736466
24	0x3a19f5a8	0.00058730925
25	0x3aaff671	0.0013424886
26	0x3726f700	9.95188e-06
27	0x386ca0b8	5.6416466e-05
28	0x3a5e2c59	0.0008475236
29	0x3a7f107c	0.00097299344
30	0xba07493d	-0.00051607547
31	0x3b253d98	0.0025213715

network.1.weight f4 [32]
0	0x3f870585	1.054856
1	0x3f921506	1.1412666
2	0x3f8e9fc8	1.1142511
3	0x3f8d019c	1.1016116
4	0x3f8f2763	1.1183895
5	0x3f8efaef	1.1170329
6	0x3f8e8f8c	1.1137557
7	0x3f91f1f3	1.1401962
8	0x3f91ef40	1.1401138
9	0x3f923bb6	1.1424472
10	0x3f9264ad	1.1436974
11	0x3f8da008	1.1064463
12	0x3f8c3968	1.0955019
13	0x3f91e327	1.1397446
14	0x3f8b9714	1.090548
15	0x3f8eab50	1.114603
16	0x3f9154a2	1.1353953
17	0x3f8bb0de	1.091335
18	0x3f923e47	1.1425256
19	0x3f920c93	1.1410087
20	0x3f8e113a	1.1099007
21	0x3f9246d0	1.142786
22	0x3f8eccc1	1.1156236
23	0x3f92169b	1.1413149
24	0x3f8c2041	1.0947343
25	0x3f92221e	1.1416662
26	0x3f8891c9	1.066949
27	0x3f92418d	1.1426255
28	0x3f8ece24	1.1156659
29	0x3f8e2dc7	1.110772
30	0x3f922b51	1.1419469
31	0x3f91c825	1.1389204

network.1.bias f4 [32]
0	0x3d775cce	0.06039124
1	0x3e14ab53	0.1451848
2	0x3def5172	0.11685456
3	0x3dd33324	0.10312489
4	0x3df29e51	0.11846603
5	0x3df6f149	0.1205774
6	0x3ded6451	0.115913995
7	0x3e12b201	0.14325716
8	0x3e128796	0.14309534
9	0x3e15809a	0.14599839
10	0x3e178800	0.14797974
11	0x3dd4b032	0.10385169
12	0x3dc51538	0.09623188
13	0x3e102f3e	0.14080521
14	0x3dc05ff2	0.093933
15	0x3df0316a	0.11728175
16	0x3e0de6ad	0.13857527
17	0x3dbb7d5b	0.09154769
18	0x3e14fed6	0.14550337
19	0x3e10c0d1	0.14136054
20	0x3de7ed97	0.113246135
21	0x3e147982	0.14499477
22	0x3df4acc0	0.11947012
23	0x3e152c88	0.14567769
24	0x3dca77ed	0.09886155
25	0x3e115c37	0.14195333
26	0x3d8b6900	0.068071365
27	0x3e127b83	0.14304928
28	0x3df1ea75	0.11812297
29	0x3de82867	0.11335831
30	0x3e1321af	0.14368318
31	0x3e115858	0.14193857

network.1.running_mean f4 [32]
0	0x3b058213	0.002037172
1	0x3aa44ad3	0.0012534506
2	0xbaa75c90	-0.0012768675
3	0xbb3b577e	-0.0028586085
4	0xba93779e	-0.0011250859
5	0x387bbca0	6.0018734e-05
6	0x3925c4bc	0.00015808915
7	0xbaa4d2e6	-0.001257506
8	0xba9edc97	-0.0012120184
9	0xba919e4b	-0.0011109797
10	0x3b3a290e	0.0028405818
11	0xb9f46149	-0.0004661179
12	0xb932570e	-0.00017007833
13	0xbb379b42	-0.0028016125
14	0xbb3dd42a	-0.002896557
15	0xbb0b7d1a	-0.0021284283
16	0xbb0d1268	-0.0021525864
17	0x3a8ce621	0.0010749736
18	0x3b5fd1ce	0.0034152153
19	0xbaf099b0	-0.0018356349
20	0xba9cfa00	-0.0011976361
21	0xb94aa160	-0.00019324338
22	0x3ae2e214	0.0017309808
23	0xbac5599e	-0.0015056615
24	0xbb33f1a0	-0.0027457252
25	0xbb7287e6	-0.0037007271
26	0x3b6ef9c4	0.003646479
27	0x3a10b456	0.0005520036
28	0x3a11f65c	0.00055680214
29	0xbb435963	-0.0029807917
30	0x3acba57f	0.0015536993
31	0xb884a170	-6.3243206e-05

network.1.running_var f4 [32]
0	0x3e57ce4d	0.21074791
1	0x3e5b7092	0.21429661
2	0x3e59f16b	0.212835
3	0x3e5758b2	0.21029928
4	0x3e5717f0	0.21005225
5	0x3e59bba9	0.21262993
6	0x3e55e99d	0.20889898
7	0x3e5698d5	0.20956738
8	0x3e5738d7	0.21017776
9	0x3e58f024	0.21185356
10	0x3e56ce66	0.20977172
11	0x3e568b16	0.20951495
12	0x3e57efce	0.21087572
13	0x3e5747a6	0.21023425
14	0x3e572338	0.21009529
15	0x3e573226	0.21015224
16	0x3e5585d6	0.20851836
17	0x3e56c9be	0.20975396
18	0x3e5a5a2e	0.21323463
19	0x3e5770df	0.2103915
20	0x3e5a0e14	0.21294433
21	0x3e5afedd	0.21386285
22	0x3e579713	0.21053724
23	0x3e569c35	0.20958026
24	0x3e5a4ef8	0.21319187
25	0x3e57343a	0.21016017
26	0x3e58e094	0.2117942
27	0x3e5d4ce0	0.21611357
28	0x3e581cef	0.21104787
29	0x3e5820c8	0.21106255
30	0x3e5b7d94	0.21434623
31	0x3e57df7e	0.21081349

network.4.weight f4 [3, 32]
0	0x3de4d7b8	0.111739576
1	0x3df1bf50	0.11804068
2	0x3e00b2df	0.12568234
3	0x3df28792	0.11842264
4	0x3e113aab	0.14182536
5	0x3df86738	0.121290624
6	0x3e044d26	0.12920055
7	0x3e063226	0.13105068
8	0x3e07fd8d	0.13280316
9	0x3e0f8709	0.14016356
10	0x3e11ff9a	0.1425766
11	0x3de95db7	0.11394828
12	0x3ddf930e	0.1091672
13	0x3df72c1a	0.120689586
14	0x3de3771a	0.11106701
15	0x3e007685	0.12545212
16	0x3df4c369	0.11951334
17	0x3ddbbd68	0.10729486
18	0x3e1cedc1	0.15325071
19	0x3dfabfb4	0.12243596
20	0x3df2ff8d	0.11865149
21	0x3e09667b	0.13418
22	0x3df3cf84	0.11904815
23	0x3e0c5fcf	0.13708423
24	0x3df6cc0b	0.12050637
25	0x3dfdf254	0.12399736
26	0x3de8a6a4	0.11359909
27	0x3e049b89	0.12949957
28	0x3dfd8834	0.12379494
29	0x3e048934	0.12942964
30	0x3dfdd85f	0.12394785
31	0x3df5332e	0.119726524
32	0xbde4395b	-0.11143752
33	0xbe0f3b3d	-0.13987441
34	0xbdfb8256	-0.12280719
35	0xbdeb6d8b	-0.11495503
36	0xbdfce5c6	-0.12348513
37	0xbdee0d68	-0.11623651
38	0xbe042496	-0.12904581
39	0xbe0b8147	-0.13623534
40	0xbe1357be	-0.1438894
41	0xbe00291e	-0.12515685
42	0xbe0a42d8	-0.13502061
43	0xbdeabebb	-0.1146216
44	0xbe058fb7	-0.13043104
45	0xbe029dcf	-0.12755512
46	0xbe04a268	-0.12952578
47	0xbe01ecca	-0.12687984
48	0xbe0e9b95	-0.13926537
49	0xbe0a4a4e	-0.13504907
50	0xbdf4013e	-0.119142994
51	0xbe13514c	-0.14386481
52	0xbdef7dfb	-0.11693951
53	0xbe032f46	-0.12811002
54	0xbe002deb	-0.12517516
55	0xbdf49a3d	-0.11943481
56	0xbdf383aa	-0.11890347
57	0xbdf4292d	-0.11921916
58	0xbddf13c7	-0.10892444
59	0xbe059eee	-0.13048908
60	0xbdeede7c	-0.11663529
61	0xbdf06caf	-0.1173948
62	0xbe032a1a	-0.12809029
63	0xbe09da8e	-0.13462278
64	0xbdcd32e2	-0.10019471
65	0xbe0a0282	-0.13477519
66	0xbe0c22bf	-0.1368513
67	0xbe07e998	-0.13272703
68	0xbdf44259	-0.11926717
69	0xbdecc1b8	-0.115603864
70	0xbdd2cb55	-0.10292689
71	0xbe08f446	-0.13374433
72	0xbe01702f	-0.12640451
73	0xbdfa31c4	-0.12216523
74	0xbe090da1	-0.13384105
75	0xbe13dd90	-0.14439988
76	0xbde80af6	-0.11330216
77	0xbe0f6d85	-0.14006622
78	0xbdf407df	-0.11915564
79	0xbdece552	-0.11567177
80	0xbe12e49b	-0.14345019
81	0xbdfd4235	-0.123661436
82	0xbdf01011	-0.117218144
83	0xbdfb6e23	-0.12276866
84	0xbe0fe969	-0.14053883
85	0xbdfa9ef9	-0.12237353
86	0xbe074811	-0.13211085
87	0xbe118d4b	-0.14214055
88	0xbde72dfa	-0.11288066
89	0xbe0eaaae	-0.13932297
90	0xbde5c807	-0.11219793
91	0xbdeeb154	-0.116549164
92	0xbdfe0aec	-0.12404427
93	0xbde2b0f8	-0.1106891
94	0xbe02a690	-0.12758851
95	0xbe06cac1	-0.13163282

network.4.bias f4 [3]
0	0x3e016c41	0.12638952
1	0xbe0175e6	-0.12642631
2	0xbe016298	-0.12635267
