artifacts/models/hybrid/best_loss_model.pth (torch, 509987 bytes, 16 tensors)

image_encoder.0.weight f4 [32, 3, 3, 3]
00000000: a810 24bd 0bcc 433d d8f8 143e a7a6 d5bd
00000010: 31d7 303d 1a21 f0bd 46c7 74bc 325c 2d3e
00000020: 37e0 403d 9108 953d 22cb 20be 8736 3d3e
00000030: 6f87 70bd bea3 33be f5b8 a5bd 3405 a73d
00000040: 64f7 813d 24e5 d33d 8969 103c b7a0 3a3e
00000050: a544 34be 7a52 3cbd f646 b8bd fcb1 bc3d
00000060: 6991 84bd 382c e2bd 8023 c4bd f993 e53d
00000070: 0e7c f13c e109 eabd 19f1 2d3e cf33 1e3e
00000080: 56cc 0fbe cc14 453c b469 43be c728 503d
00000090: 650a b73d e519 d73d a14d 433e c9a0 07bd
000000a0: ab84 99bd 7b63 0c3d e781 433e f915 c73d
000000b0: c320 173d 1bba bcbd 9702 123e ede6 3f3e
000000c0: 3da8 d43d ae44 40be 6ea0 13be 748a a43b
000000d0: 37f8 0d3d 6799 243e a5b6 31be f974 e33d
000000e0: 58e3 063d 74a5 e93d f412 a4bd 2ac9 1bbe
000000f0: 2a38 c1bc 9f4d 97bd 0c46 8c39 aa26 2fbc
00000100: c122 42be 80a0 833d f485 0f3e fdba 173e
00000110: 2645 e43d 9238 03bc f6c5 43bc 663e 96bd
00000120: 67c1 39bd 7c6e a4bc 9fee 18be 804b 173d
00000130: 3ca4 083e 3745 27be 6904 73bd d067 20be
00000140: fa33 37be 0a11 38be 34cb f3bd 1c00 6dbd
00000150: cd7e 1d3e e799 3c3d 55fe 17bc ff15 1f3e
00000160: acb7 a2bd f990 3a3c c464 15bd ff4f 0a3e
00000170: a0d5 1cbe f7a5 4d3d 58fe b2bd 9a6e aabc
00000180: 8f99 06be b7b5 003e a9ca 273e 5a05 05be
00000190: 66b8 05be 9296 db3d 1f65 0c3e 2481 ecbd
000001a0: 797b b13d a59c 243e e75f 273d 4aff 3abd
000001b0: 00b7 273e 403e f33d f2c8 7b3c bf9c c2bd
000001c0: 1e5f 2e3c 56a1 febc e857 f03b 3dc1 6d3d
000001d0: 60b3 0fbe 4311 9e3c 6665 e63d 394f 313e
000001e0: a4f6 b7bd 6c8f 0bbe 8578 863d e371 413e
000001f0: b38c 2e3e 348a 3abe ace3 1ebe 5942 11bc
00000200: baf8 cbbd 601f 8bbd 1e21 963c 5a2a 3f3e
00000210: b2b9 243e ed6d 3ebe b73d b6bc 034a 2e3c
00000220: 2c0d babd b8d7 dabc c6c4 42be 97f2 c2bd
00000230: 5b2e fabd 8e91 b53d 72e7 c73d e17a 8f3b
00000240: 6ef3 a2bc f2c0 2cbe df84 0abe 515f 973c
00000250: 7f80 38be 4e46 34bc cf89 2ebd 0375 78bd
00000260: c8d6 42be 1fd5 b43d 6e11 f5bd abb7 38be
00000270: 1bdb 9a3d 93d6 003e 9544 aabb 2f41 c33d
00000280: 0736 ff3d 1d35 3f3e 49fd 49bd 28b4 34bd
00000290: bc77 293e 10bd a13d 4c30 fabd 037c 0dbe
000002a0: 7dda 3e3d dec1 0bbe 5c12 3ebc 971e 3bbd
000002b0: d6b5 d9bd 2ecd 1b3e 9ec8 0b3e 81ac 81bc
000002c0: 5c00 a03d 9864 88bb fae8 ed3c 419a 1e3e
000002d0: b51d 013e f21c 3cbe 8ec4 073e 50e0 d9bd
000002e0: 9a05 6fbd 79b9 a53d ca60 36be cc1a 03be
000002f0: 7fa6 84bd 5824 2cbe a7db 193d 9492 b63c
00000300: 96b8 88bd 523a 393e 11b3 48bc 9470 143e
00000310: 1d63 2a3d 57e1 b6bc e3f8 2fbe db78 453e
00000320: 1513 03be f939 b5bd a7ec 28bc ae29 02bd
00000330: 6e60 5abd 9685 3dbe cfa3 35be c17a 26be
00000340: 2d6f bebd 6ecf db3d aede 203e d0b1 7c3d
00000350: c6bb 17be e4ac 3b3e 8ccd 16be c4d2 523d
00000360: 6f86 693d a12a 3cbe 0318 e8bd 3e94 c2bc
00000370: 457f 183e a154 ed3d 0100 ebbc 0010 343d
00000380: b011 193c 7d0b bbbd 6cf2 8abd fd37 5b3d
00000390: 02a9 063e 3024 e6bc 44a1 473c f6de f33d
000003a0: 34aa 993d 187d bc3d 1225 7e3d 452a 96bd
000003b0: 4711 053d 13fe 04be 035d c9bd 0eb6 bebd
000003c0: a2a1 18bd 63b0 53bd fbe8 db3d 415d 87bd
000003d0: 7262 4cbd ce88 a3bd 0958 0abd de69 ccbc
000003e0: 1afd 75bc 75ef 403e c641 8dbd 5a19 18be
000003f0: 5071 19be 384d bebd 5db0 bdbc 93d2 283e
-0.040054947 0.047802012 0.14548051 -0.10432177 0.043173973 -0.117250636 -0.014940089 0.16929701
0.047088828 0.072770245 -0.15702489 0.18477832 -0.05872291 -0.17542931 -0.080919184 0.08155289
0.06346014 0.103464395 0.008814224 0.1822537 -0.17604311 -0.045977093 -0.0899791 0.09213635
-0.06473047 -0.1104359 -0.095770836 0.11209864 0.0294781 -0.114276655 0.16986503 0.15449451
-0.14042792 0.012028884 -0.19083291 0.05082014 0.089375295 0.10502986 0.19072582 -0.03311232
-0.074960075 0.03427456 0.19092523 0.09720988 0.03689648 -0.09215184 0.142588 0.18740435
0.103836514 -0.18776199 -0.14416668 0.0050213877 0.034660544 0.16074143 -0.1735483 0.11106295
0.032931656 0.11408511 -0.080114275 -0.15213457 -0.023586351 -0.07387852 0.0002675507 -0.010690371
-0.1895857 0.06427097 0.14015943 0.14817424 0.111460015 -0.008009093 -0.011949053 -0.0733612
-0.04535046 -0.020072214 -0.14934777 0.036937237 0.133439 -0.16334997 -0.059330378 -0.15664601
-0.17890921 -0.1797525 -0.11903992 -0.057861432 0.15380402 0.04604521 -0.009276946 0.15535735
-0.07945189 0.011387103 -0.03647305 0.13507079 -0.15315866 0.050207105 -0.087399185 -0.020804692
-0.13144515 0.12569319 0.16385902 -0.12990323 -0.13058624 0.107220784 0.1371045 -0.11548069
0.08666129 0.1607538 0.040862944 -0.04565362 0.16378403 0.118771076 0.015367733 -0.09502553
0.010642795 -0.03108279 0.007334698 0.058045615 -0.1403327 0.01929534 0.11249809 0.17315377
-0.0898259 -0.1362893 0.06565956 0.188911 0.1704586 -0.18216783 -0.15516537 -0.008865916
-0.0995955 -0.06793094 0.018326338 0.186685 0.16086462 -0.18596621 -0.022246225 0.010637763
-0.090845436 -0.02671419 -0.19020376 -0.095189266 -0.12215873 0.08865653 0.097609416 0.004378662
-0.019891467 -0.16870478 -0.13527249 0.018478068 -0.18017767 -0.01100309 -0.042611893 -0.060658466
-0.19027245 0.08829712 -0.11966215 -0.18038814 0.07561322 0.12581854 -0.005196164 0.09533917
0.12461477 0.18672605 -0.049313817 -0.044117123 0.16549581 0.07897389 -0.12216243 -0.13816838
0.046595085 -0.13648173 -0.011601057 -0.04568347 -0.106303856 0.15214989 0.13650748 -0.015829327
0.078125685 -0.0041623823 0.029041756 0.1548853 0.12608989 -0.18370417 0.13258573 -0.10638487
-0.05835495 0.08092017 -0.1781036 -0.12803191 -0.06477069 -0.16810739 0.037562992 0.02228669
-0.06675832 0.18088654 -0.012249724 0.1449607 0.041598428 -0.022324247 -0.17184786 0.19284384
-0.12800248 -0.08848948 -0.010310329 -0.03177803 -0.05331462 -0.1850799 -0.1773827 -0.16257764
-0.09298549 0.107329234 0.15709946 0.061693013 -0.14817724 0.18327671 -0.14726847 0.051470533
0.05701297 -0.18375637 -0.11332705 -0.023752328 0.148923 0.11588407 -0.028686525 0.04396057
0.009342596 -0.091330506 -0.067845196 0.05352019 0.13150409 -0.028093427 0.012184445 0.11907761
0.07503167 0.09203547 0.06204707 -0.07332281 0.03248718 -0.12987547 -0.09832194 -0.09312068
-0.03726352 -0.051681887 0.10737797 -0.06609584 -0.049898572 -0.07985078 -0.033775363 -0.024952825
-0.015013957 0.18841346 -0.06897311 -0.14853421 -0.14984632 -0.09292072 -0.023155386 0.16486578

image_encoder.0.bias f4 [32]
00000000: c832 143c b221 f43d eeab 32bd 1e40 16bd
00000010: 0efd 1c3e 4fe3 0dbe 7eea 3e3e b6ef febc
00000020: a575 2abd 9b25 483d 8c7c b2bd 2398 3bbe
00000030: 080c 3abe a3fa 32bd 7233 bc3d 595b 13be
00000040: 819e 173d e47b 27be 6062 93bd ca00 64bd
00000050: 6904 ec3d 7fef 22bd 93ae e93d 27c6 65bc
00000060: 697a b7bc 8477 9fbd e237 c7ba f166 c93d
00000070: 5480 a3bd 8aec 053e 1c7a d6bd 6186 3b3e
0.00904531 0.11920489 -0.043620996 -0.03668224 0.15330908 -0.13856243 0.18644139 -0.031120162
-0.0416161 0.04886399 -0.08715162 -0.18319754 -0.18168652 -0.043696057 0.091895 -0.14390315
0.037016395 -0.16355854 -0.07196498 -0.055664815 0.11524279 -0.039779183 0.114102505 -0.014024294
-0.022397237 -0.07786468 -0.001519915 0.09834088 -0.07983461 0.13078514 -0.10472509 0.1831298

image_encoder.3.weight f4 [64, 32, 3, 3]
00000000: 349b 8cba 1cee 10bd 5c18 9b3c 10f8 86b8
00000010: fb1d 603d a2a8 9bbb dc9f 4d3c 9b9c 82ba
00000020: b002 0a3d 72da 49bd af0f b53c 5553 473d
00000030: 9d26 4fbd c9c3 2f3d dc11 5dbc bd76 98bc
00000040: 75aa 2abd 3cd1 ed3b 197e af3a ced5 ecbc
00000050: 106e 15bd ecdb 2bbc 5807 4c3d 3590 bb3c
00000060: 6c49 e8bc 296d 81bc 9764 293d c2ed bfbc
00000070: 5a65 40bd ce4e eb3c a173 503d 1aad 09bd
00000080: 524e 47bd 960f 26bd 7a49 2f3b 5ea7 973c
00000090: 132c 663d d305 09bd 75d6 243d a8e2 e9bc
000000a0: e24a 78bc e2e6 403d 0b21 e3bc 02d9 013a
000000b0: d580 f9bc c9ec bbbc 92cf 36bd 2d4c 32bd
000000c0: a2f8 f2bc 0e6a 0c3d 84b6 53bd 2ef8 a33c
000000d0: 6c5d b6bb 116f 4dbb 94b3 523a cf79 2f3d
000000e0: 5879 94bc b975 ddbc 7e2d 0d3d da98 a93c
000000f0: 2b45 21bc 95a5 163d 6eed 56bc 6f2b 413d
00000100: d808 19bd 4a15 4e3d 3859 47bc f62f c9bc
00000110: ac02 293a 37da 593d 5e22 063d 446a 23bb
00000120: 0db8 02bd 14ec c13c bec6 073d bd22 49bd
00000130: 75a3 31bc 2939 9d3c 4819 963c a840 76bc
00000140: c8bc 81bc ec65 58bd 27cd 7c3c 29cd 8c3c
00000150: d479 103c f49d 193d 78e9 cfbb 23fa 3a3d
00000160: 5781 ac3c 4c12 333b 67d4 353d 7e64 74bc
00000170: 3dba 8a3c f7cd fb3c 0379 52bd b776 d43c
00000180: a1eb 31bd b0a9 3ebd 83fd babc ccf2 71bd
00000190: 9449 51bd 86c3 47bd 0df3 b7bc 8cc5 3d3c
000001a0: 807a 70bd cd73 a6bb b28d b9bc 6457 573d
000001b0: 50fc 27bc 108c b2bc 3125 d93c 20c8 16bb
000001c0: 0090 883c e062 533d ddf7 9e3c e9a0 433d
000001d0: a381 cb3c f8ea f839 6ecd 35bc 4d74 32bd
000001e0: ee1e 60bd 2ea2 42bc bc88 d2b9 9332 6dbd
000001f0: 3f65 633c 641a 97ba 210f e13c 8b1c 4a3c
00000200: 9a2a f9ba f565 fdbb 603b d73c 28b4 663d
00000210: 6b48 6abd ad89 57bd 7c0b 6b3d 80f6 5e3d
00000220: d9a6 cabc 829e 1c3d aa76 63bc fd29 9b3c
00000230: f087 863c 2ebe b63c 7c7b 233c d8be 2a3d
00000240: 80ad 35bd bd5b fb3b 5939 693b 4b38 b83c
00000250: 1403 423d c985 09bb e8b1 1a3d efe4 b93c
00000260: 7d2c 523d 5b91 9f3c 4afd 15bd f2e5 29bd
00000270: cb66 35bc 55fd 1abd 9e44 e03a 9d3a 0b3d
00000280: 815a e03c 1024 c2b8 8cea 323d 822c 3e3d
00000290: 29a3 f53c 98ed 13bd 7ebf e83b 8e02 db3c
000002a0: 39f3 a23c 3497 29bc 83fd c13c b981 ef3c
000002b0: adc8 103c 1f5d 9c3c eb80 013c e11d 67bd
000002c0: 8a10 c0bc c4e1 7e3c 0f17 593d 79a5 51bc
000002d0: 3272 3d3b 5ed5 2d3d 263a 363d 8b32 203d
000002e0: 790c 57bd b8b8 61bd dee5 073b a962 62bd
000002f0: a6b0 d6bc 9db7 603d a213 78bc d8d2 2fbc
00000300: 5346 2b3d 3ca3 1cbd 5661 463d 1c62 ed3c
00000310: 480d 973c 1553 113d e75f b23c 5b86 79bc
00000320: 5766 f6bb a45a 983c d523 553c cfcb c63c
00000330: 2bf2 38bd 55f6 cc3c 0802 5039 1609 49bd
00000340: c61f 45bd 000f 493d ea04 2cbd e6cc cc3c
00000350: 3255 603d c733 883c 1514 3cbd 1903 febc
00000360: 9efe 25bd 483f a23b b4de 153d 8077 dfbc
00000370: b66f b73c 05a9 0e3d 6d3d 6dbd aabb e93b
00000380: 7d31 dcbc 17d3 0dbd 83aa cbbc e05f 5d3d
00000390: bba8 133d 3e7d c8bc 1a9f 2abd 522f 2fbd
000003a0: 0918 33bd 0d9d 093d 9729 633d 51a0 efbb
000003b0: 217a ed3c ea8b 3fbc ff64 3f3c f1eb 5f3c
000003c0: 5041 89bb 202e 6d3c 8ab0 0e3c 8e62 2cbb
000003d0: a53d 263d fc1e 1c3a caac 0f3d ed7d e03c
000003e0: 5a1a f1bc 6a27 de3b cbc6 14bd 2e8a 1ebd
000003f0: b76f e63c 7d2c 093d e5c4 223d 9eb1 17bc
-0.0010727406 -0.03538333 0.018932514 -6.435823e-05 0.05471609 -0.004750327 0.0125503205 -0.0009964885
0.03369397 -0.04928059 0.022102205 0.048663456 -0.050573934 0.042911325 -0.013493028 -0.018611306
-0.041666467 0.0072576087 0.001338902 -0.028910544 -0.036481917 -0.010489445 0.04981169 0.022895912
-0.028355323 -0.015799122 0.041355696 -0.023428801 -0.046971656 0.0287241 0.050891522 -0.03361235
-0.048658676 -0.040542208 0.0026746676 0.018512424 0.056194376 -0.03345282 0.040243585 -0.028550461
-0.015154572 0.047095187 -0.027725717 0.0004953296 -0.03045694 -0.022940056 -0.04463155 -0.043529678
-0.029659573 0.03428083 -0.051687732 0.020015802 -0.005565336 -0.0031346718 0.00080376235 0.042840775
-0.018124267 -0.027033674 0.034467213 0.020702768 -0.009843151 0.036779005 -0.013118131 0.047160562
-0.03736195 0.05031327 -0.0121672675 -0.024559002 0.00064472365 0.05318662 0.03274762 -0.0024935165
-0.031913806 0.023672141 0.03314852 -0.049105395 -0.010842194 0.019192295 0.018322602 -0.015030064
-0.015837088 -0.052831575 0.0154297715 0.017187672 0.008818109 0.03750415 -0.0063449703 0.045648705
0.021057768 0.0027324138 0.044392016 -0.014916537 0.016934508 0.03073786 -0.051384937 0.025935514
-0.043437604 -0.046548545 -0.022825962 -0.05906944 -0.05109556 -0.04877045 -0.022454763 0.011582743
-0.058710575 -0.0050797225 -0.022650573 0.052573577 -0.010253027 -0.021795303 0.026506992 -0.0023007467
0.016670227 0.051607966 0.0194053 0.047760878 0.024842089 0.0004747731 -0.011096342 -0.043567944
-0.054716997 -0.011879487 -0.00040156196 -0.05790956 0.013879119 -0.0011528251 0.027473034 0.012335907
-0.0019009889 -0.0077331015 0.02627343 0.056324154 -0.05719797 -0.052621532 0.057384 0.0544343
-0.024737762 0.038237102 -0.013883272 0.01894092 0.016422242 0.022307482 0.009978171 0.04168591
-0.044354916 0.007670848 0.003558716 0.02248778 0.047366217 -0.0020984283 0.03776732 0.022692172
0.05131196 0.01947849 -0.03661851 -0.04147906 -0.011071871 -0.037839253 0.0017110293 0.033991445
0.027386906 -9.257358e-05 0.043680713 0.046429165 0.029985027 -0.03611526 0.007102906 0.026734617
0.019891368 -0.010350991 0.023680454 0.029236661 0.008836907 0.019087372 0.007904272 -0.05642498
-0.023445386 0.015556756 0.053000506 -0.012795799 0.0028907177 0.04243981 0.04448905 0.0391107
-0.05250213 -0.055107802 0.0020736377 -0.05526987 -0.02620728 0.054862607 -0.0151414 -0.010731421
0.041815113 -0.03824161 0.04843267 0.028977446 0.01843895 0.035479624 0.021774245 -0.015229787
-0.007519524 0.018597908 0.013009031 0.024267105 -0.045152824 0.025019804 0.00019837182 -0.04908093
-0.048126005 0.04908657 -0.041996874 0.025000047 0.05476875 0.016626252 -0.04591759 -0.031007336
-0.040526025 0.0049513914 0.03658934 -0.027278662 0.022392135 0.03482916 -0.05791991 0.007132967
-0.026879067 -0.03462514 -0.02486158 0.05404651 0.036049586 -0.024473783 -0.041655637 -0.042769738
-0.043724094 0.03359704 0.055459585 -0.0073128124 0.0289889 -0.011691073 0.011681794 0.013667093
-0.004188694 0.014476329 0.008709082 -0.002630386 0.040586133 0.0005955545 0.035076894 0.027403796
-0.02943151 0.006779601 -0.036322396 -0.038705997 0.028129442 0.033489693 0.039738555 -0.009258656

image_encoder.3.bias f4 [64]
00000000: 2ae2 9bbb e77a 7ebc d083 453d 9d08 2cbd
00000010: 5597 3a3d f7b6 1cbc e830 583d b26c 2abc
00000020: 9bb4 bdbc b077 5dbd 5ded 68bd 92b4 2e3d
00000030: b4b4 51bd 2122 623d 589c 43bd ef01 89bb
00000040: 974b a5ba c8c1 313d 4a57 62bd d4d7 85bc
00000050: 0d28 e8bc 8540 a4bc 1660 eebb bb6f e8bc
00000060: aaae e5bb 8b45 a8bc 7c4f abbc 4615 3e3d
00000070: 1282 623c fa15 e33a 84e8 5f3d 6b94 043d
00000080: 5f3d dabb d530 5b3d 5716 0cbc b555 773c
00000090: eff4 053d d4d7 23bd 04bc 4d3d 9c53 2dbd
000000a0: 6aed 793c 79c0 17bd 888c 493d c583 f13c
000000b0: 8076 8439 0541 a33c 9a45 8ebc eab5 373d
000000c0: 52ad 103d 4c49 003d dc37 35bd 4a2e e23c
000000d0: 5270 32bd 657b e4bc 4ff2 9fbb 7169 46bd
000000e0: 1c53 82bc 9102 6bbd 4542 0dbb a43a 19bd
000000f0: c0f4 4bbc 485b 513d 0d3a 493d 698d 233d
-0.0047571855 -0.015532232 0.04822141 -0.0420004 0.045554478 -0.009565107 0.052781016 -0.010401892
-0.023157408 -0.05406922 -0.056866992 0.042652674 -0.051197723 0.05520833 -0.047756523 -0.0041811387
-0.0012611029 0.043397695 -0.055259027 -0.016338266 -0.02833941 -0.020050297 -0.007274638 -0.02837359
-0.007009347 -0.020540973 -0.020911925 0.046407007 0.0138249565 0.0017325275 0.054665104 0.032368105
-0.006660148 0.053513367 -0.008550248 0.015096118 0.03270429 -0.04000075 0.050228134 -0.042316064
0.015254358 -0.03704879 0.049206287 0.029481778 0.0002526529 0.019928465 -0.017367173 0.04485122
0.03532154 0.0313199 -0.044242725 0.027609963 -0.04356415 -0.02789087 -0.0048811804 -0.0484404
-0.01590877 -0.057375494 -0.0021554392 -0.03740944 -0.01244849 0.051112443 0.049127627 0.03992978

image_encoder.6.weight f4 [128, 64, 3, 3]
00000000: a3b8 bcbc e6a6 63bc 17b5 0e3d 1cd3 253d
00000010: 47d7 043d bd8a 213d 20b1 103d 2e86 8eba
00000020: c298 64bc dc9d 963c fa7d 473b d0e8 f5bc
00000030: c025 fd37 0c87 0fbd 90ff abbc 6150 1fbd
00000040: 9a34 b2ba e1a4 d43b 2883 d73c d4d6 0fbd
00000050: 9cd6 123c 5f56 983c e0de 83bc 2b12 7dbc
00000060: fb3e 1f3c a1f1 07bd ff40 b73b 974b 06bd
00000070: 30e1 ab3c 8ff9 17bd 18e9 d43c df1d 293c
00000080: ad67 243d 1434 fabc 498a 763c c25d ccbb
00000090: 33ff 973c fda4 8dbc 2e67 81bc caff af3c
000000a0: fbb0 24bd 7282 0fbb 0670 34bc 240f 233d
000000b0: c952 05bd 92d0 0e3c 6d15 1c3d 3455 e8bc
000000c0: 0853 b23a cff1 c0bc cedd 22bc 0d47 1ebd
000000d0: acb9 bc3c a457 983c 10bf b13c c91f cc3c
000000e0: 4618 ffbc 7574 823c 722f c63c 4ba9 fc3a
000000f0: 5f71 c63c 0421 ee3c 3289 093d b234 933b
00000100: 90d7 063d efcb c6ba e4b8 0cbd 25b8 bb3c
00000110: e802 123d 2319 123d 9cb1 793c ffb3 df3b
00000120: 9aa3 f6bb 8fb0 9abc efc8 f9bc 6864 32bc
00000130: a5e4 fc3c fdc2 e63c 3e52 213d 3b27 003c
00000140: c0a1 033d 806a 5f3b 8ae5 593c 7f26 3a3c
00000150: 2135 b6bc 7017 a1bc 150d 1abd 3548 2c3d
00000160: 4072 21bd 143f 85bc 718d b4bc 3a13 15bd
00000170: 4520 eebc 3f6f c6bc 368a ecbc c572 023c
00000180: cb04 aebb 8089 563c f917 ee3c 68d0 ebbc
00000190: a918 e8bc 5a6d b9bb b894 773c 327a 78bc
000001a0: cff7 1bbd bd05 0f3c 2b72 f33a f186 11bc
000001b0: 3f57 2a3d 85a3 bdbc 19ef bbbc ae8a 55bc
000001c0: 58f5 53bc 3b72 20bc 79a4 51bc a07f 2d3b
000001d0: 4285 5f3a b39e 43bb fa2d bd3c 3233 b93c
000001e0: 22e6 cbbb 67a7 943b 7d5d 43bc 94ba 1cbd
000001f0: a588 133d 051e 293d c4ac 10bc 386d cbbc
00000200: 10f9 c5bb 08e2 093b c69d 86bb a9fa 65bb
00000210: c189 36bc e150 083d 0cc2 b2bc 46f1 adbc
00000220: 0469 e33b 3c34 093c d673 f0bc df5a 153c
00000230: e23e 4e3c ca4e 113d 2431 123d c9ea 12bd
00000240: c58c eebc a01e bbb9 0050 22bc eed7 3abb
00000250: 40cd 813c ec40 dbbc 15ed ed3c 7c1c 613b
00000260: 64b4 75ba 4738 a03b 6687 26bd b1f1 013d
00000270: f107 18bd 1b81 a9bc 7672 123b 8652 fe3c
00000280: e7a6 8f3c a457 733c 6c3e ff3c cb91 1b3d
00000290: 899f 04bd ec50 a73c 3e67 8fbc c884 9fbc
000002a0: 7dac 1f3d 5713 47bc e7e9 da3b 2946 06bd
000002b0: 2488 113d 78df 05bd 381d eebc dc4c 8e3b
000002c0: d40e 07bc bf64 85bc 1668 18bd 336a 8b3c
000002d0: b90c 023d 5c96 4cbc 4262 a93c 994a 03bd
000002e0: 9390 57bb 503f e7bc 050b d6bc fad8 91bb
000002f0: 865a 51bc 30ed e33c 534a 923c a22e 983c
00000300: 2c34 ca3c 04e9 063d 5dd6 203d a64b 4f3c
00000310: 5902 aebc a6f5 e9bc 9061 153d a273 94bb
00000320: b9be 1bbd 0036 8cbc 8d71 23bd 577e 74bc
00000330: 5836 e53c a0e9 233c 0ed2 e6bb 7ac0 4c3c
00000340: c8a6 f23a 506a 57b9 de8b e83c 3616 5fbc
00000350: 3e8d a43c 8cc3 4e3c aa66 193d ee00 ad3c
00000360: ae92 d13c dec4 203d 1701 1ebd 41a7 e0bc
00000370: fa0a 00bc 4be5 36bc 4128 3dbc 4232 063c
00000380: 4a32 d73b 5a8c c03b c5a5 073c 79a7 bf3c
00000390: 31f7 9abc 88db 043d 7f99 1dbc daa1 01ba
000003a0: 7a3a 0abd 3913 aaba 87c9 263c 8e6e 24bd
000003b0: 42f7 973a 0c7e 1cbd 14b1 c8bb b9c4 de3a
000003c0: 2e5a c13a f3af cfbc cd53 dabc 77ac 77bc
000003d0: 6cdb 2a3d 416d 923c 9223 913b 2c17 763b
000003e0: 1e0e b2bc 0c2b b1bc 6760 6c3c e4c6 643b
000003f0: d8a8 563c 3663 eb3c 5c9c 013d a472 f53c
-0.02303726 -0.013894772 0.03484067 0.040484533 0.032431867 0.03943895 0.03532517 -0.0010873729
-0.013952436 0.01838582 0.0030440078 -0.03001824 3.0177529e-05 -0.0350409 -0.020995885 -0.038895015
-0.0013595999 0.0064893817 0.026307657 -0.035116985 0.0089623 0.018595872 -0.016097486 -0.015446226
0.009719606 -0.03318942 0.005592465 -0.03278693 0.020981401 -0.037103232 0.025990054 0.010322063
0.040137935 -0.03054241 0.015047618 -0.0062367627 0.018554306 -0.017290587 -0.01579627 0.021484274
-0.040207844 -0.002189782 -0.011013037 0.03980936 -0.032549653 0.008716719 0.03810637 -0.02836094
0.0013605068 -0.023552803 -0.009940578 -0.038641978 0.023037754 0.018596478 0.021697551 0.0249175
-0.031139504 0.015924672 0.024192546 0.0019276527 0.024223981 0.029068477 0.033578105 0.0044923658
0.03292042 -0.0015166978 -0.034356013 0.022914955 0.035647303 0.035668503 0.015240099 0.006826877
-0.007526827 -0.018883018 -0.03049132 -0.0108881965 0.030870745 0.02816915 0.039385073 0.007821853
0.03213668 0.0034090579 0.013299355 0.011361717 -0.02224213 -0.019664496 -0.037610132 0.04206105
-0.039415598 -0.01626543 -0.0220401 -0.03639529 -0.029068122 -0.024222968 -0.028874498 0.0079619335
-0.00531063 0.013094306 0.029064165 -0.0287859 -0.028332071 -0.0056587877 0.015111141 -0.015165852
-0.038078126 0.008729395 0.0018573453 -0.00888227 0.04158711 -0.023149261 -0.02294116 -0.013033552
-0.0129369125 -0.00979286 -0.012795561 0.0026473776 0.0008526632 -0.002984923 0.023093212 0.02260742
-0.0062225023 0.0045365575 -0.011924145 -0.038263872 0.036018986 0.041288394 -0.008830253 -0.024832353
-0.0060416535 0.0021039266 -0.0041081635 -0.0035092032 -0.0111412415 0.033280257 -0.021821044 -0.021233212
0.006940009 0.00837427 -0.02935211 0.009115904 0.012588235 0.03547553 0.035691395 -0.03586844
-0.029119859 -0.00035690237 -0.009906769 -0.0028510052 0.015844941 -0.026764356 0.029043714 0.0034349253
-0.00093728886 0.0048895213 -0.04065647 0.031724636 -0.03711695 -0.020691445 0.0022346056 0.03104521
0.01753564 0.014852438 0.031157695 0.037980836 -0.032378707 0.020424329 -0.017505284 -0.019472495
0.038982857 -0.012150607 0.0066807154 -0.032781754 0.035530224 -0.03268382 -0.029066667 0.0043426584
-0.008243281 -0.016283391 -0.03720864 0.017018413 0.031750415 -0.01248702 0.020676736 -0.032053564
-0.003289257 -0.028228432 -0.026128301 -0.0044509144 -0.01277793 0.02782306 0.017857706 0.018576924
0.02468308 0.032937065 0.039266933 0.012652313 -0.021241354 -0.028559517 0.036469996 -0.004530386
-0.038023684 -0.017115593 -0.039903212 -0.0149227 0.027980015 0.010004431 -0.0070440834 0.012497062
0.001851284 -0.00020543602 0.028387006 -0.013616135 0.02008688 0.012619864 0.037451424 0.021118607
0.025582638 0.039250247 -0.038575258 -0.027423503 -0.007815117 -0.011163066 -0.011545242 0.008190693
0.006567274 0.005876106 0.008279269 0.023395287 -0.018916698 0.032435924 -0.009619116 -0.0004945077
-0.033747174 -0.00129757 0.010179884 -0.040144496 0.0011594074 -0.038206145 -0.006124625 0.0016995884
0.0014751607 -0.025352454 -0.026651287 -0.015116802 0.041713163 0.017874362 0.004429289 0.0037550433
-0.021735247 -0.021626972 0.014427281 0.0034908587 0.013101779 0.02873383 0.031643257 0.029961891

image_encoder.6.bias f4 [128]
00000000: d48e beba d6c0 10bd 83a5 823c c07f d2bb
00000010: 81e3 933c 6c37 a23c 66c6 b5bc afc7 f0bb
00000020: 3b95 0e3d 2875 0e3c 157d 0cbd 6247 15bd
00000030: 9e87 a23c 718b 51bc 7482 d8bc b663 13bd
00000040: bb6b 88ba 8647 ca3c 399d d93c 18ad ef3a
00000050: 534d 6dbc e835 fabb 04a4 483c 44fb ec3a
00000060: c12c 55bc 01b7 e73c 6968 2abb ba24 b63b
00000070: 020b 883a 5f19 17bd 42cd 9b3c 9483 363a
00000080: 37d4 05bd 6830 223d b18e 5a3c a0f1 b4bc
00000090: cf84 f2bc 0d94 0ebd c647 183d 937e 6dbc
000000a0: 835a 59bc 43c8 f43c a2b9 24bd f03a 8b39
000000b0: 5500 1c3d 801e ea3c b2d1 eebc 9645 a73b
000000c0: 5371 273c 4b56 c2bc 62f1 103c b1a0 8dbc
000000d0: fc1b aebb 2e1e 1fbd 8c01 483c 5993 a33c
000000e0: 9b88 e3bc fc45 9a3b 9cb0 04bc 120c 903c
000000f0: f1a6 04bd c6af 2e3b 914f bebc 5b12 093d
00000100: a103 1a3d 685d 303c 2b94 283d 841e b4bc
00000110: 1eef d4bc 1b8e ddbc 02ea 5bba 7191 5abc
00000120: e9b0 663c df54 a63c 2b20 64bc 7af5 063c
00000130: 056c dc3b 9a25 c4bb dcb7 34bc eb55 fcbb
00000140: 8f4a 97bc 786c 1fbc 94fd c9bc aa77 9bbc
00000150: 1c33 e339 777a 39bc 6434 9b3c 380d 24bd
00000160: 728a 223d 86fb e63a e0ef 78bc ca5a 15bd
00000170: 3110 06bd 6e86 62bc 0fa9 153d b7c3 8c3c
00000180: d466 203d 4cff 0f3c 1c3e 3b3c beb1 9e3c
00000190: 6494 63bc aed4 5c3b fb18 45bc b05f d239
000001a0: 5170 debc 79ca 8abb 93b4 0bbc 77d0 ee3c
000001b0: 40f2 263d 6341 08bd a67a acbc 1fd2 a1bc
000001c0: ee5e 16bd 61b3 35bc e105 793c 6fbf e23c
000001d0: d6e4 0d3c 4eb6 03bd f62b b9bb 5431 0d3c
000001e0: ad00 10bd 4290 0cbd f239 1f3d dc13 9339
000001f0: e27e 7a3c 25e5 1fbb 811f 873c 3619 8bbc
-0.0014538416 -0.035340153 0.015948063 -0.0064239204 0.018052818 0.019801818 -0.02218933 -0.007348023
0.034810286 0.008694924 -0.034298975 -0.03644503 0.019840058 -0.012789593 -0.026429392 -0.035983764
-0.0010408083 0.024692308 0.026564227 0.0018285839 -0.014483768 -0.0076358207 0.012246136 0.0018080254
-0.013011158 0.028285505 -0.0026002175 0.0055585774 0.0010379257 -0.03688943 0.019018773 0.00069623557
-0.032673087 0.039596945 0.013339684 -0.022087872 -0.029604344 -0.03480916 0.037177823 -0.01449551
-0.013266209 0.029880648 -0.040216096 0.00026556058 0.038086254 0.028578997 -0.029152725 0.005104731
0.01021989 -0.023722788 0.008846613 -0.017288538 -0.0053133946 -0.03884714 0.0122074 0.019967722
-0.0277751 0.00470805 -0.008098748 0.01758388 -0.03238577 0.0026655062 -0.0232313 0.03346477
0.037601117 0.010764457 0.04115693 -0.021987207 -0.025992926 -0.0270453 -0.0008389057 -0.01334034
0.014080265 0.020304142 -0.013923685 0.008237237 0.006726744 -0.005985928 -0.011030164 -0.007700672
-0.01846817 -0.009730451 -0.024657048 -0.018977959 0.00043334893 -0.011320702 0.01894588 -0.04005167
0.039682813 0.0017622567 -0.015193909 -0.036463536 -0.032730285 -0.013825996 0.03653818 0.017183168
0.039160565 0.008788895 0.011428382 0.019371863 -0.01389036 0.0033696103 -0.012029882 0.00040125614
-0.027153166 -0.0042355624 -0.008526939 0.029152138 0.04075837 -0.033265483 -0.021054577 -0.019753514
-0.036711626 -0.011090131 0.015199156 0.027679173 0.008660516 -0.03215628 -0.0056509925 0.008617718
-0.035156894 -0.034317262 0.03887362 0.0002805282 0.01528904 -0.0024398055 0.016494514 -0.016979795

geo_encoder.0.weight f4 [64, 20]
00000000: 8b42 703d adb1 3ebd 5b15 783d 4686 943d
00000010: 9e55 d73d d600 833d 87a5 0abe a675 00be
00000020: 5f62 083e 1f3d 13bd af76 62bd 69f6 11be
00000030: e50a 023e dc2a 09be 325e 8d3c d08a 653e
00000040: 5456 f4bd a600 a83d 2666 26be b145 e83d
00000050: ce72 ab3d 3161 2b3e 02f4 00be 575d 1a3e
00000060: 9b84 103e 2987 573e a396 253e a531 223d
00000070: fc74 3dbe 304a 5cbe dee3 a8bc 5b5d 4dbe
00000080: 4bcd 5a3e cac5 d03c 9f0b acbd 4559 613d
00000090: 1e52 27be aba7 d3bd 4bb6 0c3e 27a1 943d
000000a0: eef0 fabd 732f 02bd 1713 27be 7798 c0bc
000000b0: 7678 f63d 4519 4e3e 46e2 bdbc 0de5 10be
000000c0: e3db be3d 079c 11be 4324 e63c f1ba 3b3e
000000d0: 683a 323e 0e6a b2bd b991 8cbd d47c 40be
000000e0: cd4a ebbd a5df 3e3e 51c3 ff3d dfd2 103e
000000f0: 2be6 3e3e 3faa 35be 51ea d3bc d94f 563e
00000100: 0f87 043e fad8 90bd 0096 58be 6922 583e
00000110: 12f7 00bc 75f2 3dbe 7bbe 553e c153 a13d
00000120: 9744 3c3e 7673 f33b efe7 523e 01c7 f7bd
00000130: bad2 86bc 2eb7 10bd fda2 57bd ad03 32bd
00000140: 59fa e2bc b12e 313e 6518 4cbe be8c cd3d
00000150: f978 4cbe 555d 63bd 336b 213e 8306 6e3d
00000160: 524d c43d 7fcc 073e 4712 1f3e 6ac0 48be
00000170: 91eb 18be 5c59 f8bc c98b 48be 5b1b 093e
00000180: e553 c53d 7853 62bc 5167 be3d 6173 863d
00000190: becb 5fbe d7e9 66bd 25d1 5d3d 1e8d cb3d
000001a0: 9060 e7bd 8d5a 5b3e 6259 bf3d 3a9a d33d
000001b0: 6764 17be 4f25 73bd bb73 05be 97f3 903d
000001c0: 9492 e33b 9640 103d cb94 f53d cbab d43d
000001d0: dfc1 74bd 9c4e 5bbe 37ae bd3d e78f 963d
000001e0: 31bb 4dbe 1ad1 2ebe daa4 87bd 68a8 8cbd
000001f0: d68d 7d3d 52b8 3dbe f8c6 593b d905 89bd
00000200: d89d 3f3e 6bfd 44be 81d8 99bd 94df fabd
00000210: ba08 1c3e c464 313d 7c02 6c3d 61f0 bb3c
00000220: b2d8 eebd ff85 493e 6036 7ebd 27dc dd3d
00000230: 870d dd3c d638 d73d ca14 7bbb 82be 16be
00000240: 39a0 1abe 3255 513d 17f6 623e c84a afbd
00000250: 0561 37bd 4261 a53d 61d3 03be e283 4abe
00000260: 68d6 9abd 2bf6 94bd f01f 47bd 06ae 59be
00000270: 4005 183e 5bde 03be 7ef9 10be a3c2 e5bd
00000280: 5b70 1d3d 670e 62be 0faa 4a3e d5ff 3d3e
00000290: e2a8 953d fe2d aebd 219d 4d3e 356b 0ebd
000002a0: 3d67 623e 2ff4 91bc 7edc 133e ca2e 3c3d
000002b0: 7286 1cbe d666 1dbe 5510 e9bc 0aaa 08be
000002c0: ffb8 413e d556 48be 20c7 08be 41c4 793d
000002d0: 93b8 f4ba 795c 153e 538f 163e c465 b3bd
000002e0: 72c4 de3d 4ba4 cdbd 2574 a1bb 686b 7339
000002f0: ae65 063c 3bec 5e3e 1aea 283d 4276 5ebe
00000300: 92ea 0dbe 5881 dabb f583 ff3c 1eb2 2e3e
00000310: da1f 2cbe e611 5f3e 2310 5fbd 49ff dc3d
00000320: aec0 24be 81fd d0bd 9bd9 0f3e db27 9ebb
00000330: 6ae5 ed3d 97de 40bd 472d 1bbd 1edb bcbd
00000340: 73e8 43be 1258 c23d be8c e9bd 359e 48be
00000350: 22c9 1b3d f5f2 f5bd b4f6 053e 8950 d4bd
00000360: 884e 093c 6d09 f13c ddcc 043e 7c5e dabd
00000370: fa2b 893d ad69 573d e63a b3bd 45f7 f7bb
00000380: 44cb 9dbb dc5e 1cba 0dc8 353d 376c c1bc
00000390: 9772 543e 83d7 523e f6b9 90bd f008 e43d
000003a0: 9ff1 bfbd dcc0 3dbe 31b8 c0bd 8684 073c
000003b0: 24b5 113d c0ae 483d 812e 97bc d687 56bd
000003c0: ff75 eebd f604 15be df2c 5c3e 734e 453e
000003d0: 6c8d e1bd f925 42bd e9b1 b9bc 2dac 37bd
000003e0: 0e4a 81bd e966 d4bc 4c78 3b3e 170e c7bd
000003f0: c96d 843d 48d7 193c a5c8 f53d 0a58 f7bd
0.05865721 -0.046556164 0.06056724 0.07252173 0.10514377 0.06396644 -0.13539706 -0.1254488
0.13318776 -0.03594696 -0.055288967 -0.14254154 0.12699468 -0.13395256 0.01725683 0.22416234
-0.11930528 0.08203249 -0.16249904 0.113414176 0.08371507 0.16736294 -0.12593082 0.15074669
0.14113085 0.21047653 0.16170745 0.039598126 -0.18501657 -0.21512675 -0.020616468 -0.20055144
0.21367376 0.025484938 -0.08400654 0.055016775 -0.16339919 -0.103347145 0.13741414 0.072573
-0.12252985 -0.031783532 -0.16315876 -0.0235102 0.12034695 0.20126827 -0.023179185 -0.14149876
0.09319284 -0.14219676 0.028093463 0.18333031 0.17405093 -0.087116346 -0.06863732 -0.18797618
-0.114888765 0.18640001 0.124884255 0.14142941 0.1864249 -0.17740725 -0.025868567 0.20928897
0.12942146 -0.07072635 -0.2115097 0.21106876 -0.007871406 -0.18549521 0.20873444 0.07877303
0.1838554 0.0074295355 0.20596288 -0.12098504 -0.016457904 -0.035330944 -0.052645672 -0.043460537
-0.027707266 0.17302968 -0.19931181 0.1003661 -0.19968022 -0.05550893 0.1576355 0.05811168
0.0958506 0.13261603 0.15534316 -0.1960465 -0.14933611 -0.030316047 -0.19584574 0.13389342
0.09635142 -0.013813846 0.0929705 0.065649755 -0.21855065 -0.05637535 0.054154534 0.09939025
-0.11297715 0.21421261 0.0934322 0.10332151 -0.14784394 -0.059361752 -0.13032429 0.07077711
0.0069449637 0.035217844 0.11991271 0.103843294 -0.059755202 -0.21416706 0.092617445 0.07351666
-0.20090939 -0.17071953 -0.0662324 -0.068680584 0.061902843 -0.18527344 0.0033230167 -0.066905685
0.18712556 -0.19237296 -0.07511998 -0.122496754 0.15237704 0.04330899 0.057619557 0.02294177
-0.11662425 0.19680022 -0.062063575 0.10833006 0.02698399 0.105088875 -0.0038311952 -0.1472111
-0.15100183 0.05110664 0.22164188 -0.08559185 -0.04477026 0.08075191 -0.12873603 -0.19776872
-0.07560426 -0.07273515 -0.048614442 -0.21257791 0.14845753 -0.1287779 -0.14157674 -0.11218765
0.03843723 -0.22075807 0.19791435 0.18554623 0.073076025 -0.08504866 0.20079471 -0.03477021
0.22109695 -0.017816631 0.1443958 0.04594306 -0.15285662 -0.1537126 -0.02845017 -0.13346115
0.18918227 -0.19564374 -0.1335721 0.060978178 -0.001867073 0.14586057 0.14703111 -0.08759645
0.10877313 -0.10041102 -0.0049271756 0.00023214298 0.008202953 0.21769802 0.04123888 -0.217248
-0.13859013 -0.006668251 0.031190852 0.17060134 -0.16809025 0.21784171 -0.05445875 0.10790879
-0.16089126 -0.10204602 0.14047854 -0.0048265285 0.11616023 -0.04708728 -0.037884977 -0.09221481
-0.19131641 0.09489454 -0.114037976 -0.19591601 0.038033612 -0.12009231 0.13082391 -0.10366923
0.00838054 0.02942344 0.12968774 -0.10662553 0.06697841 0.052591015 -0.08751468 -0.0075673186
-0.004815491 -0.0005965063 0.044380236 -0.023611171 0.20746838 0.20590024 -0.07066719 0.11134517
-0.093722574 -0.18530601 -0.09410132 0.008271342 0.03557314 0.04899478 -0.018454792 -0.052375637
-0.116436 -0.14552674 0.21501492 0.19268207 -0.11013302 -0.047399495 -0.022667842 -0.044841934
-0.06312953 -0.025927978 0.18307608 -0.09719484 0.06466252 0.009389706 0.120011605 -0.12077339

geo_encoder.0.bias f4 [64]
00000000: 7d7c 2e3e ee20 1dbe be3a 8cbd 4a68 15bd
00000010: 097c af3c 39f7 2fbd eed9 b0bd 9215 96bc
00000020: 91d5 59be 4d54 fc3d 0cba 3e3e 635f 0c3e
00000030: 88db fabd bd7a 7c3b 98a2 cbbc 54e8 ed3d
00000040: 0753 dd3d 9737 99bd d252 86bd a4b6 c9bd
00000050: 7ec3 12bd 889f 02bc f7c1 d03d 75f9 e43d
00000060: 0719 09be 42ce 2dbe 1d9f 04be e3d7 213e
00000070: 9605 37be 9448 e2bd c758 35be d14f c1bd
00000080: 7365 13be 50f9 ca3d a973 a1bd d81d 573e
00000090: 0320 42be 8d8f 40bd 21c8 04bd e288 543e
000000a0: c1a3 a13d 0583 5fbe 6012 cfbd 5b28 debd
000000b0: 767b 623e cfda 3c3e 6263 e23b 039e 063c
000000c0: ca80 55be 462d 2f3d 782a 0fbe aea4 0e3d
000000d0: 6dd7 b6bd 0319 673d 6a31 8dbd 61ea 36be
000000e0: 7902 29bd c0ee f83d e06f 993d 8233 9b3c
000000f0: c5fd 05be 0d3f 433e f2dc 053e f78a e2ba
0.17039676 -0.15344593 -0.06847142 -0.03647641 0.02142145 -0.04296038 -0.08635317 -0.018320832
-0.21272875 0.123207666 0.18625659 0.13708262 -0.122489035 0.0038525306 -0.024857804 0.11616579
0.10806852 -0.07481306 -0.065587655 -0.09849289 -0.035830967 -0.0079726055 0.10193246 0.11180393
-0.13388453 -0.16973212 -0.12951322 0.1580501 -0.17873225 -0.110489994 -0.17709647 -0.09439052
-0.14394169 0.09910834 -0.078833885 0.21007478 -0.18957524 -0.0470119 -0.03241742 0.20755342
0.07892562 -0.21827324 -0.10110927 -0.10847541 0.22117409 0.18442844 0.00690882 0.008216384
-0.2084991 0.042767785 -0.13981044 0.03482502 -0.08927808 0.056420337 -0.068941906 -0.17862846
-0.041262124 0.12154913 0.074920416 0.01894546 -0.13085087 0.1906702 0.13072565 -0.0017283846

geo_encoder.3.weight f4 [32, 64]
00000000: b7d5 3c3d a5c3 f5bb b868 a13d 1cf0 c63d
00000010: ddb8 363d 717c 353d 85d0 c43c 9d02 693d
00000020: 7304 6b3d 1c5a 233c f9a3 b5bc 50c1 9f3d
00000030: 7c49 1ebc 9fb1 c63c 7a0c dabd ec77 fbbd
00000040: 0bb5 173d 31e0 88bc ec51 c83d 5bc4 0cbd
00000050: d993 5bbd e72f 80bd 7701 cc3d 0bdf debd
00000060: 988a b33c 4b40 9abd 75ba 223d de36 b33d
00000070: 22cf dfbd 4e13 b43d 4ad1 743b 38f8 bb3d
00000080: 83bb 6f3d 9a50 dfbd d3ba 95bd 35c7 563d
00000090: 5ff0 ea3c 8684 f73b fea8 bc3d 2b14 593d
000000a0: f38b 78bc e66e ce3d 90d0 e8bd b02d da3d
000000b0: d800 aabd eea5 53ba 2777 b3bc 12f5 b6bd
000000c0: b3ca 62bc a493 883d 81b0 903c 629c c1bd
000000d0: aa9b ddbd 91ef 81bc a7b0 6d3d 0a81 27bd
000000e0: 4dcf 033d 43d4 1d3d 7469 80bd 85ff e8bb
000000f0: 46b6 8cbd d684 383c 967e c03d be58 a53d
00000100: c0f8 b9bd 8577 053d 22b2 233c 002c 843d
00000110: 3622 c73d fcc7 a03a d4de 413d 3675 9e3d
00000120: 55d8 603d 20f9 e73d 6a21 f63d e6a5 b0bd
00000130: 0637 e43d 9af7 963d 00cd e7bd 26a6 013a
00000140: 6625 96bd 8971 ab3c e336 58bd 2128 c2bd
00000150: 01d0 813c d891 babd a495 a33c f9fe 303c
00000160: 225a a8bd 2cf4 82bd 10cd c0bd b70b 52bd
00000170: a677 b13d c971 673d 0d7c 6dbd 946f 82bd
00000180: ce00 8abd 1cb8 a4bb f0ef 87bd c614 973d
00000190: 997c 173d 5d6a 8abd b141 ea3c 8d9e 773d
000001a0: 1005 0d38 4b98 0cbd 69d6 9e3c 7666 61bb
000001b0: 64e8 bfbd 58d3 483c 4a4d c53d aafc ecbd
000001c0: 1526 63bd 52dd a43d 40a0 d0bd e084 f8bd
000001d0: 21c6 693d 7e19 e0bd 0126 ee3c 5680 e1bd
000001e0: 1b8d 6aba acef 973d c798 54bc 0447 c4bd
000001f0: a6fe a13d 0bc0 cabd fea6 42bc 36ea a9bd
00000200: 27fe 833c 147b 9fbd c3b9 96bd 589d d2bd
00000210: fef8 4c3c 6445 a5bd 0416 45bc 9cb5 833d
00000220: 3e75 0d3c 0415 9e3d d203 5e3d 0bb1 233d
00000230: 4ce9 c4bd 3b7e 6a3c 32f2 a2bd 6ebe d93a
00000240: 2408 fcbb 968c 9d3d 2371 08bc ee16 803d
00000250: 034f 633d b385 7dbd 5f3c 1e3d 583d ea3d
00000260: 4aa1 aebd 8f75 86bd 90c6 b83d 20dc d23d
00000270: 21e1 31bd cbcd 433d 0935 f6bc f038 a83d
00000280: 4ec7 9cbd c769 c23c af4d f93d baa0 18bd
00000290: 2e24 d13d cefd 833d 1001 cfbd 6f27 a83c
000002a0: 80b1 7dbd e2bc 3abc 1a4e b7bd 791d f1bd
000002b0: 91cd 62bd 3bba 853d a0f6 f9bd 1eeb a93d
000002c0: 16f8 b43d 27b8 913d 58d4 fa3d d0d7 aebd
000002d0: f08a 90bd 3ee4 b4bd 674c 5a3d f61a f0bd
000002e0: 6e7c 9d3d 6e65 6f3c 6ea7 dbbb 2e8e 793c
000002f0: 17c8 8a3d 214d cdbd 428d bdbd 58d9 003e
00000300: 37fe 023d d643 c7bd efd6 6dba c8dc 183d
00000310: 27e4 ef3d f3d2 8bbd cee3 8bbc 8ab2 b53c
00000320: 16d0 9f3d 5c39 f6bd 7e83 fbbd a4c9 6d3d
00000330: 2e14 ad3d e8ec 85bd 4e28 f9ba 3a91 f3bd
00000340: b8d8 c8bd e349 3dbd a993 c6bd 5f26 fc3d
00000350: 952e eebd d6a1 cabd 128e 953d 07ab b03d
00000360: 49c3 12bd 2191 a6bd ddcc 4c3d 5f48 c6bd
00000370: 8dd2 e83d 67f5 afbd 71f1 c2bd cb73 bdbd
00000380: dfb5 c43c 7caf bbbd 89b5 8dbb 1d47 10bd
00000390: 516a e8bc e4f8 bc3c a73b 943d be56 30bd
000003a0: ab32 c43d 5f68 eabd e9e9 9f3d 0522 e33d
000003b0: 67a6 f03d 955a aebd c84d f73b 5f77 f3bd
000003c0: 30d3 e93d 66ca a9bc 36c5 d4bd 8ee5 79bd
000003d0: 138b 94bd c294 e7ba a515 443d 7bec 98bd
000003e0: 0634 14bc 5878 7ebd 2b8e 65bd 8e66 163d
000003f0: c729 093d ca8b 8b3d b73c a7bd f7e7 ecbc
0.04610225 -0.0075001293 0.07881302 0.09713766 0.044609893 0.04430813 0.024025211 0.056887258
0.05737729 0.009970214 -0.022172915 0.07800543 -0.009661075 0.024254618 -0.10646911 -0.12278733
0.03703789 -0.016708465 0.0978125 -0.034366947 -0.053607795 -0.06259137 0.09961217 -0.10882386
0.021916673 -0.07531794 0.0397286 0.087506995 -0.10928179 0.087927446 0.0037356191 0.09178203
0.058528434 -0.109040454 -0.073110245 0.052436072 0.028679071 0.00755364 0.0921192 0.05299775
-0.015170085 0.10079746 -0.11367905 0.106532454 -0.08300942 -0.00080737367 -0.021907402 -0.08933462
-0.013842273 0.06668785 0.017662289 -0.09453656 -0.10820706 -0.015861304 0.058029797 -0.040894546
0.03218012 0.038532507 -0.062701136 -0.0071105384 -0.068707034 0.011262139 0.09399144 0.08073567
-0.090806484 0.032584686 0.009991201 0.06453705 0.09723322 0.0012266631 0.047331646 0.077372
0.05489381 0.11326814 0.12018092 -0.086253926 0.111433074 0.07371445 -0.113183975 0.00049457175
-0.07331352 0.020928161 -0.05278672 -0.0948031 0.015846254 -0.09109849 0.019968815 0.010802978
-0.082203165 -0.06394228 -0.094141126 -0.051280703 0.08665399 0.056505 -0.057979632 -0.06368938
-0.06738435 -0.0050268304 -0.06637561 0.07377009 0.03698406 -0.067585684 0.028595777 0.06045394
3.3621734e-05 -0.034324925 0.019389348 -0.0034393347 -0.09370497 0.0122574195 0.09633882 -0.11571629
-0.05545624 0.08050026 -0.10186815 -0.12134719 0.057073716 -0.10942362 0.029070856 -0.11010806
-0.0008947418 0.07418761 -0.012975878 -0.09583858 0.079098985 -0.098999105 -0.011880634 -0.08296625
0.0161124 -0.07787147 -0.0735965 -0.10283917 0.012510536 -0.08069876 -0.012029175 0.064311236
0.00863391 0.07718852 0.054202862 0.039963763 -0.0961481 0.014312322 -0.07956351 0.0016612539
-0.0076914 0.0769283 -0.008327755 0.062543735 0.055495273 -0.061895084 0.038631793 0.11437482
-0.08526857 -0.06565391 0.09022248 0.10295892 -0.04342759 0.04780368 -0.030054586 0.08213985
-0.07655202 0.02373208 0.1217302 -0.037262656 0.10211979 0.06444894 -0.101076245 0.020526616
-0.061936855 -0.011397572 -0.089504436 -0.117731996 -0.055371825 0.06529661 -0.12205243 0.08296798
0.08836381 0.071152024 0.122475326 -0.08537257 -0.0705775 -0.08832596 0.05329552 -0.117238924
0.07689749 0.014611585 -0.006703309 0.015231652 0.06776445 -0.10024477 -0.092554584 0.1258291
0.03198072 -0.097297356 -0.000907286 0.03731993 0.117134385 -0.06827345 -0.0170764 0.02217986
0.07803361 -0.12022659 -0.122809395 0.058053628 0.084511146 -0.06539327 -0.0019009204 -0.11892934
-0.09806961 -0.046213042 -0.09696133 0.12312006 -0.116299786 -0.09894149 0.073024884 0.08626371
-0.03583077 -0.0813315 0.05000006 -0.096817724 0.113682844 -0.08591729 -0.095187075 -0.092506014
0.024012504 -0.0916433 -0.004324619 -0.03522407 -0.028371008 0.023067899 0.0723794 -0.043051474
0.09579977 -0.114456885 0.07808287 0.11090473 0.11750489 -0.08513371 0.007547114 -0.118880026
0.11417234 -0.020726394 -0.103891775 -0.061009936 -0.07253089 -0.0017668235 0.047872204 -0.0746698
-0.0090456065 -0.062126487 -0.056043785 0.036718898 0.033487108 0.06813772 -0.08165877 -0.028919203

geo_encoder.3.bias f4 [32]
00000000: a799 ee3c 3d8e c2bd 1f51 d1bd 3870 843d
00000010: c18d 10bd 6b90 7ebd bd94 b1bd c313 873d
00000020: 4d52 ffbd 4784 c2bd 5296 62bd 822f 19bd
00000030: 00e9 db3d af12 893d 36a9 cb3d cfa3 783d
00000040: bad3 ecbd 02fd e33d fa4a a13c 33bf b4bd
00000050: e03f 69bc 19a0 fb3d bbfd 983d 84b2 913c
00000060: b192 2cbd 9679 ef3c f8a2 893c e6a5 7a3d
00000070: 93fe 4e3d d02a eb3d 25da b33d 3bb3 983d
0.029126002 -0.09499786 -0.10220551 0.064667165 -0.035291437 -0.062149446 -0.08670948 0.06595566
-0.124668695 -0.09497886 -0.055319138 -0.037398823 0.107378006 0.06693017 0.09944384 0.060703095
-0.11563821 0.11132242 0.019689072 -0.08825531 -0.01423642 0.122863956 0.0747027 0.017785318
-0.042132083 0.029232781 0.016801342 0.06119337 0.05053575 0.11482775 0.08781842 0.074560605

fusion_layer.0.weight f4 [128, 160]
00000000: 289d 1ebc 4644 273d 632f 2abd bb9d 223d
00000010: 891d e7bc 8c09 5ebd 1f9a d5bc f64c 333d
00000020: fdda 9a3d 79de 8ebd 8a0a 63bd 56d7 86ba
00000030: dbb5 a73c 73ea 153d 88dd 853d ed1d 953c
00000040: 7963 71bd 89b4 8dbd d963 163c 3f88 1f3c
00000050: bc12 023d cd55 4ebd aa69 66bd d592 12bb
00000060: 7f49 5a3d 1fbe 213d c10e 86bd 4823 57bb
00000070: 8ae1 5f3d 5d66 83bc ba03 22bd 7a40 85bd
00000080: 91c6 84bd 592f 9bbd 916f 973d fe97 4dbd
00000090: 286e 2dbc 10a2 243d 71f2 883d 2bd7 37bd
000000a0: 8077 60bc ceae 7d3d 7b53 353d 2ab6 403d
000000b0: 39a7 6b3d 6ceb 893c 0f0c 8cbd b8ae 46bd
000000c0: 176d 94bd c0e6 b4bc 7230 31bd 6da8 e13c
000000d0: 484b 8dbd becd 3a3c d0e0 453d 7729 85bd
000000e0: 55d0 b63c 320c 06bd fac8 9d3d 071a 9a3d
000000f0: 107e 1ebd 3064 823c e00e 7d3d 2919 2bbd
00000100: efae cc3c e61d 8c3d f477 b83b 461a 9abd
00000110: 5b5f 893c 4af6 7b3b 0b1f 8e3c 034c 933d
00000120: 0c0e 9bbd 7c1c 5c3d a1fe 8bbd cf04 a5bb
00000130: 7c29 b03c 6910 073c e085 9cbc 88e7 103d
00000140: 96c1 0ebc 0114 3a3d f3e3 7bbd 7abc 9bbb
00000150: 36ed 593c 68ae 193c 2dde 85bd 6f37 393c
00000160: e1a0 513c caae 91bc cf89 9ebd 2f42 e63b
00000170: 4aee 8339 6457 4ebd 7a3c 6ebd e464 8cbb
00000180: 86cd 3ebd ce50 8cbd c464 eb3c 127c a4bb
00000190: f37a 7ebd 365c 6fbd b57b 35bd 50a6 3a3d
000001a0: a20f dabb d79f 2d3c f75f 8dbd ef91 af3c
000001b0: 812e 35bd 9158 2f3b fe2f 2a3d a381 a8bc
000001c0: 756b 88bd 2a5d 8e3d 6029 4ebd 43a6 943d
000001d0: 4860 7b3d 09dd 4d3d 0674 0cbd 13af 3dbd
000001e0: 39fe 023d 2274 963d aa3d 493d a0ee 59bd
000001f0: 91a3 7dbd a455 ba3c 923e fe3b 7dc4 c4bc
00000200: e76e 0d3d fe3b 08bd 2c45 563a 6c2c 57bc
00000210: 1612 753c 91f5 d3bc def4 033c 2c1c 87bb
00000220: 8926 46bd e63e 9dbd 93e4 d6bc c519 643d
00000230: 0245 e13c 35d2 9a3d 3248 9bbc 1a77 7ebc
00000240: 3dd6 b33b 14ff 79bd a2d7 47bc 2074 dcbb
00000250: c3e5 333d 1586 7dbd 866a ed3a 1d62 2bbd
00000260: 03ea 0a3d 6b2e 413c f347 e1bc 2bd2 973d
00000270: 1bf6 4cbd b0e5 79bd bede 503d c0eb 9b3c
00000280: 4b68 6d3d e8e7 9abd ac3e d83c a04c 393d
00000290: 2bab 5bbd f1b3 3abd 8515 20bd c107 5cbd
000002a0: 50d1 613d 6a50 833d d2dc ee3b 91d5 053d
000002b0: 8625 6abd 9757 96bd d8fa e0bc 500e 2cbd
000002c0: 85fa 7fbc 2b73 29bd 25cd 93bd 1b31 12bc
000002d0: 0ded 853d 2a50 123d ebe6 833d 6441 89bd
000002e0: 9a69 8cbb 2226 483d a6e4 b7bb e261 e5bc
000002f0: 3b1e 323d 65fd 633d c212 913d 93fb 113d
00000300: c6be b63c e832 39bc e1f9 9e3c a38a b6bc
00000310: c551 903d 0108 503d 90f9 9e3d 08cc 9c3d
00000320: 6db3 36bd 6772 563d 1d4e 12bd 54f3 663d
00000330: 3083 afbc 0782 8b3c 7744 a9bc c6f8 213d
00000340: 2eb4 9a3c 8162 e4bb b7ed 09bd c604 2cbc
00000350: 0113 87bc 7858 993d d699 8bbd 322e 0fbc
00000360: 4da1 b73a 4234 b4bb c123 57bd 8681 8d3d
00000370: 6720 373d be9b 983d 7cde 623c dc11 02bd
00000380: 887b f3bc ff47 8c3d 2d58 043d c6f0 1e3d
00000390: 96c7 80bd f0cc 7ebd fdc6 2e3d b457 8c3d
000003a0: bb12 c5bc ce5f 793b fe19 503d 93c6 6c3d
000003b0: 57df 9a3d 845b 4c3d 31c4 3dbd 1ffa 53bd
000003c0: 64aa 903d 2b3d 40bd 285a f13c 6bc6 66bd
000003d0: 14f8 103d 6130 823d 90d4 033c 02fa 15bd
000003e0: ad7e 5cbd 5098 7cbd 5e05 56bd b0b0 73bd
000003f0: 8174 e93c 1eaf 83bd bcf1 14bd e392 55bd
-0.009681024 0.040836595 -0.041549098 0.039701205 -0.028212326 -0.054208323 -0.026074467 0.043774568
0.075613 -0.06976027 -0.055429973 -0.0010287564 0.020472458 0.03660054 0.06536394 0.018202746
-0.058932755 -0.069192 0.009179079 0.009737073 0.031756148 -0.050374795 -0.056253113 -0.002236535
0.053292748 0.039487954 -0.06545783 -0.0032827426 0.05465845 -0.016040022 -0.039554335 -0.065064386
-0.06483186 -0.0757739 0.073943265 -0.05019378 -0.010585345 0.040193617 0.06686867 -0.044882935
-0.013700366 0.061934285 0.044269066 0.047048725 0.057532523 0.01683589 -0.068382375 -0.04850647
-0.0724737 -0.022082686 -0.04325909 0.027546132 -0.068991244 0.011401592 0.0483101 -0.065020494
0.022316137 -0.032726474 0.07704349 0.075244956 -0.03869444 0.015916914 0.061781764 -0.04177204
0.024985759 0.0684164 0.005629534 -0.075245425 0.016769102 0.003844636 0.017348787 0.071922325
-0.075710386 0.053738102 -0.06835676 -0.0050359736 0.021504156 0.008243659 -0.019106805 0.035377055
-0.008713147 0.045429233 -0.061496686 -0.0047526928 0.013301184 0.009379961 -0.06536517 0.01130472
0.012794704 -0.017783541 -0.07741129 0.0070269327 0.00025163806 -0.05037631 -0.058163144 -0.004284488
-0.04658272 -0.0685135 0.028734572 -0.005019673 -0.062128972 -0.05843755 -0.04430743 0.045568764
-0.0066546956 0.010597191 -0.069030695 0.021431891 -0.044233803 0.002675567 0.041549675 -0.020569628
-0.06661121 0.069513634 -0.050332427 0.072582744 0.061371118 0.050259624 -0.034290336 -0.046309542
0.031980727 0.07346369 0.049131073 -0.053206086 -0.061923567 0.022745915 0.007758924 -0.024019474
0.034529593 -0.033260338 0.00081737596 -0.01313315 0.014957925 -0.025873931 0.008053986 -0.0041232314
-0.048376594 -0.076780125 -0.02623204 0.05568864 0.027498726 0.07559625 -0.018955324 -0.015531326
0.0054881857 -0.061034277 -0.012197407 -0.0067277104 0.04392029 -0.06189545 0.0018113411 -0.041841615
0.033914577 0.011790852 -0.027500128 0.07413133 -0.050039392 -0.061010063 0.050993674 0.019033313
0.05796079 -0.07563764 0.026397072 0.04523909 -0.053630035 -0.04558176 -0.039083023 -0.053718332
0.055131257 0.06411822 0.0072895074 0.032674376 -0.05716469 -0.07340925 -0.027463362 -0.042005837
-0.015623693 -0.0413696 -0.072168626 -0.0089228405 0.065393545 0.03572098 0.064405285 -0.067019254
-0.0042850496 0.04886449 -0.005611974 -0.028000776 0.04348586 0.055661578 0.07083656 0.03564031
0.022307765 -0.011303641 0.01940626 -0.022282904 0.07046846 0.050788883 0.07762444 0.076561034
-0.044604708 0.052355196 -0.035719026 0.0563844 -0.02142486 0.017029775 -0.02066253 0.03954389
0.018884744 -0.0069697504 -0.03367397 -0.010499185 -0.016488554 0.07487577 -0.06816451 -0.008739041
0.0014009863 -0.0054993937 -0.052524332 0.0690947 0.044708636 0.074515805 0.01384699 -0.031755313
-0.02972199 0.0684967 0.032310653 0.03880384 -0.06288068 -0.062207162 0.04267024 0.068526655
-0.024056783 0.0038051489 0.050806038 0.057806563 0.0756213 0.049891964 -0.04632968 -0.051752206
0.070637494 -0.046933334 0.029461935 -0.05634157 0.035392836 0.06356884 0.008046284 -0.03661538
-0.053831745 -0.061668694 -0.052251212 -0.059494674 0.028497936 -0.06429885 -0.03636335 -0.052142035

fusion_layer.0.bias f4 [128]
00000000: 990b edbc 1d94 5fbc 5e73 883d 31e4 5e3d
00000010: 2f8b 5abd 0e38 d4ba f4fb 16bc d4d9 333c
00000020: 4e2f e03c 8228 13bd 5f8a 7fbd 2caf 233d
00000030: 2953 053d cddf 4bbd e133 803d 48d2 58bd
00000040: 64d6 553b 046e 16bd bccb ee39 1884 4d3d
00000050: 0919 263d 7586 34bb a380 223d a0cf 32bd
00000060: 007f 91bc 7881 fe3c fed8 85bd 73fc 7f3d
00000070: 48af 9dbd 1330 29bd 93a5 5abd af24 063d
00000080: 99f5 89bd 154b 69bd a2cd c53c 6d77 5c3d
00000090: 0608 9c3d 957a 98bc dae0 8cbd f4fa 8f3d
000000a0: ca7f cdbc c5dc 32bd 521b 9e3d 2b2d 9c3c
000000b0: 32ce c83c 5889 9abc 3037 7c3d 2149 54bd
000000c0: 24d4 43bd 5f5d 313d 2bf7 65bd aed7 75bc
000000d0: 6968 5b3d 5f6e 3f3d ba3d c73c 9d23 7c3d
000000e0: cbcd 19bd 6b5f 5dbd 31ab 393d b2ff 963d
000000f0: a6f8 88bd 650a 7f3d f68f 0abd d2f9 003d
00000100: 7bc0 993b 779d 66bd b88f 983b 01f4 d7bc
00000110: 01d5 793d 0727 2ebb 553a 82bd ae3f 50bc
00000120: 7434 883d a61a 463d 3f25 5bbd 7f90 0c3d
00000130: f938 273d 7364 1dbd 3e1a d43c 42cf 003d
00000140: 0d1d 9bbd 299d a0bd 14c2 25bc 8167 57bd
00000150: 537d 9d3c 559f 143d a7b9 98bc 6b2b 383d
00000160: 14d9 8ebc 99c5 70bd 0d77 5a3d 5dd8 823b
00000170: 9263 7ebd 6c58 cf3c 0c19 823d 7403 663d
00000180: f3af 9abd 55b0 6b3d 101e 95bd 778e 663c
00000190: 55b0 9e3d 308d 4d3b be5f 60bd c663 953d
000001a0: f7d3 4cbd 4917 8bbd fe1c 3abd be20 4ebd
000001b0: 62d0 8ebd f33c b9bc 57dc 6bbd a75b d4bb
000001c0: 00b2 ad3c cc7e 2bbd 8db1 51bc f545 96ba
000001d0: 6785 0a3d 466a 56bd 660a 933d c5f4 7c3c
000001e0: 2b6c a03c 1af0 d0bc 8bdb 6c3c 8045 623d
000001f0: e3a5 8e3d 4b0b 31bd 97bf 9bbd df2a 0d3d
-0.028936194 -0.013646153 0.066626295 0.05441684 -0.053355392 -0.0016191022 -0.009215344 0.010977227
0.027366307 -0.035927303 -0.06238782 0.03996198 0.03255001 -0.04977398 0.06259895 -0.052934915
0.0032629007 -0.036726013 0.0004554669 0.050174803 0.04055122 -0.0027545963 0.03967346 -0.043655038
-0.017760754 0.031067595 -0.065355286 0.062496614 -0.07699448 -0.041305613 -0.05338056 0.032749828
-0.06736297 -0.05695637 0.024145905 0.05382483 0.07618718 -0.01861314 -0.068788245 0.070302874
-0.025085349 -0.043667573 0.07720055 0.019064507 0.024512384 -0.018864319 0.06157607 -0.051827554
-0.047809735 0.043301936 -0.05614392 -0.015005035 0.05356637 0.046736117 0.024321426 0.0615574
-0.037549775 -0.054046076 0.045329276 0.07372989 -0.06688051 0.062265772 -0.033828698 0.031488247
0.004692135 -0.056302514 0.0046558045 -0.026361467 0.060994152 -0.0026573555 -0.06358782 -0.012710495
0.0665063 0.048365258 -0.053502318 0.03431749 0.040825818 -0.038425874 0.02589142 0.031447656
-0.075739 -0.07842476 -0.010117073 -0.052588943 0.019224798 0.036284763 -0.018643213 0.04496328
-0.017437495 -0.058782194 0.053336192 0.0039930777 -0.062106676 0.025310718 0.063524336 0.056155637
-0.07553091 0.05754121 -0.072811246 0.014072052 0.077484764 0.0031364672 -0.054778807 0.07294421
-0.050006833 -0.06791551 -0.045437805 -0.050324194 -0.069733396 -0.02261207 -0.05758318 -0.0064806524
0.021203041 -0.04186897 -0.012798679 -0.0011464941 0.03381863 -0.052347444 0.07179718 0.015439217
0.019582829 -0.025505114 0.01445664 0.05524206 0.06965234 -0.04322366 -0.07604902 0.034464713
