artifacts/models/dataframe_model.pth (torch, 189382 bytes, 20 tensors)

network.0.weight f4 [256, 5]
3.707857e-05 3.2725853e-05 2.229387e-05 0.0006921982 0.0022544651 7.3713113e-06 8.097732e-06 1.8719188e-06
-0.000934379 -0.001044589 7.805505e-06 9.509225e-06 2.6246205e-06 0.0009461019 0.0021997534 -2.4595352e-07
3.957354e-07 -4.013914e-08 -0.0050699348 -0.00010494279 -1.1238163e-06 1.6028272e-06 -4.2188518e-07 -0.00083016936
-0.0003545555 7.0065096e-07 1.3931748e-07 2.6595657e-07 -0.012430175 -2.1974116e-05 -2.0738116e-06 1.5348111e-06
-3.603848e-06 0.0020729909 0.00048543097 -2.6400538e-05 -1.5653237e-05 -1.9684356e-05 0.0010406002 0.00051688775
-1.2057318e-06 9.546145e-07 -3.5218777e-06 0.00093993125 -0.0003627198 -2.0283949e-06 -1.1048054e-06 -6.2113975e-07
-0.0012460095 0.00020954171 -0.00017499359 -9.0590416e-05 -0.00013422756 0.00013074311 0.0023131007 -3.3047163e-06
-1.1936187e-06 -2.1718172e-06 0.0026824856 0.00015672334 2.8875368e-06 1.5384243e-06 9.668448e-07 -0.002112977
-0.00026586166 -4.511191e-07 1.8246159e-07 -4.9071053e-07 0.008289161 9.682167e-05 -5.180319e-05 -3.4951674e-05
-4.1219828e-05 0.00044251716 0.00062712573 -1.1527307e-05 -9.043268e-06 -7.780448e-06 0.0004264752 0.0005658762
1.2413449e-05 1.2039061e-05 3.0078672e-06 -0.0005411112 -0.0010437728 8.0803517e-07 9.0249455e-07 4.4104414e-07
-0.005640665 -0.00014224606 -2.9849335e-08 -5.998546e-07 1.6889476e-06 -0.00092504197 0.00024628607 -4.1771154e-06
-1.133879e-06 -7.460284e-07 -0.00096213084 0.00071960024 -1.9571826e-07 5.8571854e-06 1.0235023e-06 -0.00045814933
-0.0006452188 -6.845047e-06 -9.3557526e-07 -9.634481e-06 0.0009793062 0.0006107498 1.2635738e-06 1.1464092e-06
6.342059e-07 0.011056564 -8.433175e-06 -1.3408295e-06 -3.055953e-07 -1.2990535e-06 0.007361972 0.00014375817
2.590289e-06 4.14054e-06 -7.4810157e-07 0.0024602374 0.00068715855 1.2688438e-05 1.2725453e-05 6.2857457e-06
0.00075312215 -0.0004244549 -7.3965833e-07 -4.2114522e-07 -1.0339448e-06 0.007972316 8.798657e-05 1.4514708e-06
1.6786372e-06 1.7714042e-07 0.0015796875 8.5409585e-05 -1.0471085e-07 1.2486597e-06 -5.025503e-07 0.0032240946
0.0001742207 5.3399674e-07 2.749253e-07 3.2445993e-07 -0.0046915375 -3.9285416e-05 1.6043919e-06 -7.846286e-07
5.5184086e-07 -0.00045926755 -0.0001498477 1.1245696e-06 3.89107e-07 6.406888e-07 -0.007543056 -0.0001122627
1.7214157e-06 1.5672811e-06 4.5417954e-07 -0.00062822277 0.0003241403 1.9543322e-05 6.2187037e-06 1.0914419e-05
-0.00028597005 -0.001027842 1.5007062e-06 9.910646e-07 1.0073189e-06 -0.0040287403 -0.0001093291 -3.1251802e-05
-1.6794493e-05 -2.3188506e-05 0.00089032773 0.001598256 -1.982097e-05 -2.0062758e-05 -2.6130723e-05 -0.00030480034
0.0020292206 4.162571e-08 8.411459e-07 -5.867315e-07 -0.0027315903 -0.00021695808 7.657255e-07 4.6967173e-07
3.1862376e-07 -0.00546773 -9.527587e-05 -7.000996e-06 -3.5061905e-06 -4.8885395e-06 0.0040983027 0.00030062877
1.8790739e-06 8.319751e-07 6.743236e-07 -0.0021811442 -0.00017084913 6.881104e-05 6.424837e-05 3.857394e-05
6.4960135e-05 0.0011849103 1.4413723e-06 2.1883786e-06 5.355315e-07 0.004742089 0.0003388701 -5.9346013e-07
3.3409112e-06 -1.8592995e-06 0.001770499 0.00058466994 -1.1452308e-06 -7.268261e-07 -8.700489e-07 0.008483994
6.1752195e-05 6.5489103e-06 5.148187e-06 3.3836875e-06 -0.00056129246 -0.000801154 -7.2832827e-06 -5.204712e-06
-4.9958217e-06 0.0035958518 6.307884e-05 -7.586591e-07 5.9158924e-06 -4.937123e-06 0.0006792102 0.0020478722
4.1038584e-06 2.7613407e-06 1.1419963e-06 -0.0011130586 -0.00055882265 1.828395e-06 1.7859011e-06 1.1137942e-06
0.006284749 7.0710514e-05 -4.795784e-07 1.220502e-06 -1.62608e-06 0.0025872116 0.00040295214 -3.4556458e-06
00000000: d084 1b38 1e43 0938 b903 bb37 a374 353a
00000010: a6bf 133b 1557 f736 7edb 0737 a43e fb35
00000020: 1df1 74ba 97ea 88ba 64f4 0237 cf89 1f37
00000030: a322 3036 d303 783a bd29 103b 980b 84b4
00000040: 7675 d434 7365 2cb3 b221 a6bb bb14 dcb8
00000050: 09d6 96b5 b920 d735 757f e2b4 b99f 59ba
00000060: a2e3 b9b9 5e14 3c35 4c97 1534 cbc8 8e34
00000070: efa7 4bbc 0e55 b8b7 d02b 0bb6 b5ff cd35
00000080: a3d9 71b6 04db 073b 7181 fe39 b976 ddb7
00000090: 124f 83b7 d51f a5b7 c064 883a c07f 073a
000000a0: a1d4 a1b5 4e20 8035 6659 6cb6 b865 763a
000000b0: 6d2b beb9 8f1f 08b6 d348 94b5 66bc 26b5
000000c0: 2451 a3ba 6db8 5b39 7c7e 37b9 5cfb bdb8
000000d0: 70bf 0cb9 1618 0939 6497 173b 98c6 5db6
000000e0: 6d34 a0b5 89bf 11b6 a4cc 2f3b 1a56 2439
000000f0: 81c7 4136 db7b ce35 89c4 8135 df79 0abb
00000100: 5963 8bb9 5631 f2b4 a9ea 4334 5fb9 03b5
00000110: 43cf 073c bd0c cb38 4047 59b8 1399 12b8
00000120: 74e3 2cb8 a601 e839 b265 243a 6865 41b7
00000130: 8ab8 17b7 c588 02b7 8898 df39 4f57 143a
00000140: 5c43 5037 60fb 4937 c4da 4936 5cd9 0dba
00000150: 34cf 88ba c1e7 5835 f442 7235 a5c8 ec34
00000160: 54d5 b8bb e327 15b9 b133 00b3 b205 21b5
00000170: ccaf e235 847e 72ba f51f 8139 2629 8cb6
00000180: c92f 98b5 ae42 48b5 8237 7cba 8ea3 3c3a
00000190: a026 52b4 d788 c436 455f 8935 c333 f0b9
000001a0: e723 29ba 82ae e5b6 3e24 7bb5 c8a3 21b7
000001b0: 105c 803a ba1a 203a 1198 a935 52de 9935
000001c0: 4c3e 2a35 9726 353c 367c 0db7 8df6 b3b5
000001d0: b310 a4b4 235b aeb5 b23c f13b cabd 1639
000001e0: d3d4 2d36 f8ee 8a36 26d1 48b5 ef3b 213b
000001f0: 6e22 343a 6de0 5437 687f 5537 25ea d236
00000200: 2c6d 453a 5f89 deb9 ef8c 46b5 c219 e2b4
00000210: 13c6 8ab5 519e 023c 6e85 b838 28d0 c235
00000220: 894d e135 fd33 3e34 840d cf3a ec1d b338
00000230: 66dd e0b3 9f97 a735 fee6 06b5 554b 533b
00000240: 03af 3639 fa57 0f35 7299 9334 6f31 ae34
00000250: 78bb 99bb 65c6 24b8 7c56 d735 449f 52b5
00000260: 3722 1435 d9c9 f0b9 7020 1db9 ebef 9635
00000270: 75e6 d034 cdfb 2b35 bd2b f7bb 946e ebb8
00000280: 650b e735 5e5b d235 f6d5 f334 51af 24ba
00000290: 60f1 a939 f7f0 a337 42aa d036 131d 3737
000002a0: 40ee 95b9 a8b8 86ba df6b c935 b804 8535
000002b0: 3733 8735 8603 84bb 9d47 e5b8 5e14 03b8
000002c0: e6e1 8cb7 f084 c2b7 e264 693a 937c d13a
000002d0: 3545 a6b7 724c a8b7 4d33 dbb7 9ccd 9fb9
000002e0: acfc 043b f4c7 3233 1bcb 6135 e27f 1db5
000002f0: 7b04 33bb 3e7f 63b9 418c 4d35 3127 fc34
00000300: 510f ab34 a52a b3bb d8ce c7b8 19ea eab6
00000310: e54b 6bb6 3c08 a4b6 0e4b 863b b69d 9d39
00000320: 7d34 fc35 e554 5f35 2a03 3535 87f1 0ebb
00000330: f725 33b9 a54e 9038 15bd 8638 74ca 2138
00000340: 353b 8838 fe4e 9b3a 2d75 c135 0fdc 1236
00000350: 72c1 0f35 8763 9b3b 60aa b139 454e 1fb5
00000360: 6b34 6036 0b8d f9b5 1710 e83a 8944 193a
00000370: d5b5 99b5 1c1b 43b5 4e8d 69b5 7300 0b3c
00000380: f580 8138 b6be db36 97be ac36 4f13 6336
00000390: b323 13ba 8904 52ba ec62 f4b6 23a4 aeb6
000003a0: c8a1 a7b6 62a8 6b3b 3249 8438 a8a6 4bb5
000003b0: 2181 c636 90a9 a5b6 060d 323a 9835 063b
000003c0: e0b3 8936 794f 3936 b246 9935 0de4 91ba
000003d0: f47d 12ba 2d67 f535 18b3 ef35 ad7d 9535
000003e0: 4cf0 cd3b 6b4a 9438 60bc 00b5 21d0 a335
000003f0: af3f dab5 358e 293b 5243 d339 8be7 67b6

network.0.bias f4 [256]
-6.2014467e-13 5.323579e-13 -3.130141e-13 -1.1860467e-13 -6.61168e-13 2.5160812e-14 7.797798e-13 -2.4484725e-13
-1.449782e-12 1.5850426e-13 9.98035e-12 6.428244e-14 -1.3220257e-13 2.316912e-14 7.4491466e-15 -2.5793977e-13
-6.198697e-13 -1.877786e-13 -2.292912e-13 1.4179645e-13 -1.3764779e-12 5.3779014e-13 -4.1734387e-14 1.0723568e-13
-3.4448366e-13 -6.799935e-13 -4.6226176e-14 2.788705e-13 -3.7770842e-13 -1.5275823e-13 -3.5651356e-14 -1.7619749e-14
2.8480885e-13 -1.2101475e-12 -7.9131715e-14 2.8915511e-12 -1.0825444e-11 3.1427213e-14 7.0431494e-14 -2.9503196e-13
6.7542475e-14 3.8308506e-13 -2.76609e-13 -5.6209426e-13 -5.5043305e-15 6.7023297e-13 1.979609e-13 -1.2740285e-13
-3.7801977e-13 1.0504616e-13 -7.192155e-14 2.2317368e-13 -2.33609e-14 -4.1653238e-14 -1.8604872e-12 -6.8772456e-13
1.5336182e-12 2.6685095e-14 -8.608398e-13 6.307151e-16 -1.10243385e-13 1.1636313e-12 4.7302277e-14 -2.5546085e-13
-1.31767825e-14 -6.6769276e-14 1.3674921e-12 -7.920529e-13 1.0018319e-14 -7.9336467e-13 3.8713658e-14 1.929753e-13
1.2172225e-11 -6.6251155e-13 -1.0147649e-13 9.694332e-13 -2.1063617e-12 -2.1982938e-12 -4.6072017e-13 3.4475344e-13
-1.9240024e-12 8.667873e-15 -1.6571662e-13 5.3432065e-14 -2.0117226e-14 -5.307276e-13 -3.3477354e-14 2.6671956e-13
-3.629307e-14 -1.6550897e-14 -5.9460513e-14 3.7862064e-14 -1.4931772e-12 -8.314096e-15 -1.1847959e-12 -1.114271e-12
1.5932378e-13 -6.9563624e-14 -3.9986116e-13 -1.8927416e-13 -1.9048e-13 -5.43429e-13 -1.06470435e-13 8.4238795e-13
4.5491995e-14 -5.39272e-14 7.414099e-14 -1.0509274e-13 -2.2757193e-12 -5.8839815e-13 -3.627543e-13 7.2875266e-14
-5.6831757e-14 -6.1003265e-14 7.180818e-13 -2.543335e-13 -9.370932e-13 -3.561412e-13 -1.0068279e-13 -2.6242673e-12
-6.621119e-14 -2.844165e-13 -5.76652e-13 8.553736e-15 2.4687632e-14 -8.024237e-13 -4.6264208e-14 -7.82372e-14
-9.338259e-15 6.021661e-13 -3.9096937e-13 -1.7844339e-13 -2.1099591e-13 -1.3218693e-13 7.208427e-14 -4.700278e-13
-2.0885069e-12 2.2799167e-14 8.490965e-15 -1.01496373e-13 2.144881e-14 4.7340444e-14 2.9853938e-13 -4.423581e-13
1.2370872e-11 3.8046853e-12 1.2688681e-13 6.0309483e-13 1.401348e-13 5.750845e-13 -1.076578e-13 4.319849e-12
2.772554e-12 4.0873652e-13 1.173464e-14 -3.862907e-14 -1.6874822e-14 7.19126e-13 -1.015696e-13 -9.926156e-13
-5.826827e-13 3.4187833e-13 -1.0943303e-14 1.6887782e-13 1.110657e-13 3.159184e-13 2.9733638e-14 -1.9300357e-14
1.0182988e-13 -1.7575683e-14 8.845561e-13 -2.9395404e-13 4.6653897e-14 -1.2397211e-12 -1.7713477e-13 -2.3370647e-13
1.3102402e-12 9.043785e-13 8.968955e-13 -2.4181706e-13 2.886733e-13 5.844057e-14 6.667816e-14 2.9320014e-13
3.400694e-14 -8.279144e-13 2.4103699e-12 -8.5865706e-13 7.884779e-14 9.1026084e-14 2.836926e-14 1.3168252e-13
-3.1447945e-13 1.869401e-12 -1.2680953e-13 -6.5018493e-13 1.4685041e-12 -2.0646877e-13 -9.802077e-14 -4.581987e-13
2.360333e-14 1.2286403e-12 7.988253e-15 -9.193681e-13 -9.271974e-14 1.8578424e-14 2.5133685e-13 2.1637866e-13
3.2988982e-14 7.029652e-13 5.739823e-14 -8.86961e-14 -9.0826774e-14 -1.8101905e-13 -5.115764e-14 -1.9146403e-12
-2.1666878e-13 -3.6277727e-15 -1.4516122e-14 -4.383451e-14 -9.759058e-15 -1.5297372e-12 1.3765073e-12 2.521885e-12
-4.483457e-14 3.5834337e-13 1.6959379e-13 -1.9721973e-14 -2.1477346e-13 7.732292e-14 6.6717677e-15 1.2123257e-11
1.4424817e-13 -4.1488375e-14 1.1162175e-12 -1.4022458e-12 -3.121936e-12 -2.9303862e-13 -5.866615e-13 -1.1007541e-12
3.288745e-13 -2.5362983e-13 -1.9649863e-14 2.3265323e-13 -1.8427939e-13 8.863511e-13 8.4603104e-13 2.1235299e-14
1.4470402e-13 -8.274591e-15 -4.768156e-13 -7.06791e-14 4.8162195e-14 -1.4887705e-12 1.7727047e-13 2.3078514e-13
00000000: 228e 2eab 6ed8 152b 1636 b0aa 7889 05aa
00000010: 2d1a 3aab e2a0 e228 0e7d 5b2b 35d6 89aa
00000020: e709 ccab be75 322a 8093 2f2d 4ec0 9029
00000030: ccd8 14aa 5ab0 d028 2031 0628 0a35 91aa
00000040: 527a 2eab 7f6b 53aa 5814 81aa 0ba6 1f2a
00000050: d8b8 c1ab dd5f 172b 79f4 3ba9 2979 f129
00000060: 54ed c1aa b266 3fab 272f 50a9 79fd 9c2a
00000070: 85a1 d4aa 90fd 2baa 378f 20a9 60b4 9ea8
00000080: 4855 a02a 2950 aaab 5430 b2a9 8e79 4b2c
00000090: 7771 3ead 1c89 0d29 fe98 9e29 9616 a6aa
000000a0: 9617 9829 60a8 d72a 8fb7 9baa 2937 1eab
000000b0: 7d50 c6a7 60a7 3c2b 58e2 5e2a 5f71 0faa
000000c0: 64ce d4aa fd8a ec29 f3f3 a1a9 6f45 7b2a
000000d0: 916a d2a8 ea96 3ba9 8feb 02ac c793 41ab
000000e0: 6bd6 d72b a45b f028 0b4e 72ab 8fca 3526
000000f0: fc3e f8a9 3cc4 a32b d007 5529 cacf 8faa
00000100: 2f5f 6da8 de59 96a9 1875 c02b 6df1 5eab
00000110: 5779 3428 f34f 5fab cf59 2e29 5845 592a
00000120: d422 562d fd7a 3aab 3781 e4a9 836f 882b
00000130: d738 14ac f1b0 1aac 63ae 01ab 3514 c22a
00000140: bf63 07ac 8225 1c28 9094 3aaa faa2 7029
00000150: 2a33 b5a8 f462 15ab c3c4 16a9 5726 962a
00000160: 1073 23a9 c513 95a8 a7e4 85a9 fd83 2a29
00000170: 6125 d2ab 00c6 15a8 c5be a6ab d8d1 9cab
00000180: f461 332a b3a4 9ca9 111a e1aa 901a 55aa
00000190: 1f76 56aa 30f6 18ab 07c0 efa9 731c 6d2b
000001a0: b3e0 4c29 d4dd 72a9 5ff3 a629 d7a5 eca9
000001b0: b723 20ac 8e9e 25ab 6736 ccaa bb19 a429
000001c0: 8ef2 7fa9 fd5d 89a9 3f1f 4a2b 522d 8faa
000001d0: 57e2 83ab 5b7d c8aa adb7 e2a9 99aa 38ac
000001e0: 2718 95a9 bd1c a0aa 2850 22ab 2517 1a28
000001f0: ce5d de28 b9dc 61ab 005b 50a9 ad2c b0a9
00000200: 1e39 28a8 a47e 292b a018 dcaa cee8 48aa
00000210: 6e8f 6daa 4ad4 14aa c151 a229 134d 04ab
00000220: 32f7 12ac 4d5b cd28 aaf5 1828 ad8c e4a9
00000230: 9731 c128 d133 5529 0f10 a82a 8506 f9aa
00000240: 74a1 592d 8fdd 852c a2dc 0e2a 90c1 292b
00000250: 1bc7 1d2a 35df 212b 7f6c f2a9 befd 972c
00000260: e519 432c 2419 e62a 7a64 5328 49f8 2da9
00000270: b1fe 97a8 7d6a 4a2b e3b6 e4a9 bfb2 8bab
00000280: b702 24ab dc75 c02a 1423 45a8 b823 3e2a
00000290: 0419 fa29 a4d8 b12a 8de8 0529 98d7 ada8
000002a0: ee4c e529 c44e 9ea8 fcfa 782b 3e7b a5aa
000002b0: 481c 5229 a979 aeab 9f6f 47aa a790 83aa
000002c0: 6166 b82b 578f 7e2b 2274 7c2b 8321 88aa
000002d0: 3582 a22a b298 8329 5825 9629 980e a52a
000002e0: 5527 1929 8509 69ab 5d9d 292c c3b0 71ab
000002f0: a88c b129 f7f8 cc29 0f87 ff28 e742 142a
00000300: 4409 b1aa 228c 032c 5cc6 0eaa c302 37ab
00000310: 70ac ce2b 9276 68aa 20b9 dca9 b2f8 00ab
00000320: 9399 d428 6fea ac2b 51e7 0f28 ba63 81ab
00000330: 4bc9 d0a9 ee56 a728 757d 8d2a e79e 732a
00000340: b591 1429 fbdd 452b d43f 8129 d2b9 c7a9
00000350: 1286 cca9 30cf 4baa be64 66a9 18bb 06ac
00000360: 86f2 73aa 4cb4 82a7 e6bf 82a8 c069 45a9
00000370: b6cd 2fa8 974a d7ab e7b9 c12b 3e76 312c
00000380: bdea 49a9 b9ba c92a 15f2 3e2a c6a3 b1a8
00000390: 3cd0 71aa a11d ae29 3260 f027 4c46 552d
000003a0: b468 222a d7d8 3aa9 f917 9d2b 3b59 c5ab
000003b0: cdaf 5bac 51f7 a4aa 6b21 25ab d9ea 9aab
000003c0: cf23 b92a e9c7 8eaa 80fd b0a8 ddf8 822a
000003d0: eb7a 4faa 547c 792b f622 6e2b 4445 bf28
000003e0: 18ec 222a d10f 15a8 2f36 06ab ba27 9fa9
000003f0: 3be7 5829 9c86 d1ab bc96 472a a5eb 812a

network.1.weight f4 [256]
0.99073714 0.9603723 0.94630426 0.92726463 0.9128501 0.9534491 0.95521134 0.9728103
0.9178217 0.93945515 1.0330614 0.9588193 0.9552128 0.91991544 0.9924065 0.938422
0.97119087 0.9503206 0.929958 1.0084361 0.92067194 0.9607094 0.9516564 1.0166005
0.94654286 0.9422637 0.97024864 0.95859337 0.9399766 0.9672201 0.92166156 0.9596707
0.9854789 0.9627014 0.9561244 1.0171316 0.9897531 0.95123917 0.9250137 0.9905496
0.910902 0.9504964 0.991103 0.96693796 0.93711555 0.9334078 0.9744195 0.92844796
0.93026406 0.9313134 0.95679075 0.9718402 0.94707334 0.96770906 0.9316269 0.9222165
0.9723636 0.9449258 0.94029415 0.93245655 0.93078 0.92432076 0.978974 0.936518
0.92414886 0.9461823 0.9214631 0.9352325 0.9371938 1.0084611 0.9557419 0.9338649
0.9625402 0.9158783 0.9443415 1.0243155 0.943254 0.93616766 0.9878067 0.91446
0.9429904 0.9081006 0.9825698 0.9701744 0.9717386 0.95571333 0.92655516 0.9491654
0.9071909 0.9516424 0.96608573 0.93444496 0.92529273 0.9469899 0.93868786 0.9435799
0.94410485 0.9315335 0.9378357 0.9699205 0.9387944 0.9438895 0.9706357 0.90601534
0.94574946 0.9066482 0.9748983 0.96599126 0.93884254 0.9377452 0.9582137 0.9620065
0.92974484 0.9337118 0.91157156 0.9638712 0.9540554 0.9556805 0.948862 0.95441025
0.9329362 0.97137594 0.9968083 0.93646663 0.954543 0.9662759 0.9476754 0.9586815
0.9728231 0.98672277 1.0105118 0.9423012 0.9799571 0.9143721 0.9200183 0.96495855
0.91780066 0.9319356 0.93622345 0.9744219 0.9511959 0.9332519 0.95147204 0.9510228
0.924509 0.9429956 0.93318254 0.96939003 0.97263503 0.94923824 0.95071316 0.9298023
0.91662586 0.9964773 0.9440928 0.9429857 0.9710527 0.9524249 0.9876944 0.9412364
0.937336 0.98042053 0.98401415 0.909701 0.95448077 0.9950201 0.96364546 0.94319767
0.89401335 0.9292532 0.9747884 0.9355142 0.9704915 0.9945309 1.0061182 0.96275383
0.9476065 0.9134072 1.0062541 0.95843065 0.9511049 0.9253014 0.97575307 0.9187697
0.98425436 0.94990593 1.0074968 0.92947394 0.9489127 0.96210474 0.9526549 0.97515064
0.93192047 0.945087 0.95317626 0.94678247 1.0146277 0.96778643 0.93458116 0.9609547
0.98232913 0.94237 0.88491786 0.965153 0.93746793 0.934507 0.923339 0.9422362
0.87240684 0.96549577 0.9524605 0.9413716 0.94949615 0.93990517 0.93158704 0.9777496
0.94693846 0.90074176 0.9390606 0.93853444 0.959196 0.9105915 0.9558849 1.0016357
1.0201322 0.9365884 0.94057316 0.9397505 0.98215735 0.95217144 0.882642 0.9826641
0.97433174 0.9456075 0.9718427 1.0235504 0.9406601 0.97144747 0.97496736 0.9259062
0.95628256 0.92453146 0.9827704 0.9634824 0.92970717 0.96463037 0.973093 1.0186923
0.97598624 0.9323229 0.9619173 0.96299815 0.99799234 0.9615765 0.9547234 0.98649603
00000000: f3a0 7d3f f6da 753f ff40 723f 3761 6d3f
00000010: 8bb0 693f 3d15 743f bb88 743f 190a 793f
00000020: 5df6 6a3f 2280 703f 5b3b 843f 2f75 753f
00000030: d388 743f 947f 6b3f 5a0e 7e3f 6d3c 703f
00000040: f79f 783f 3648 733f ba11 6e3f 6f14 813f
00000050: 28b1 6b3f 0df1 753f c19f 733f f71f 823f
00000060: a250 723f 3238 713f 3762 783f 6066 753f
00000070: 4ea2 703f bd9b 773f 03f2 6b3f fbac 753f
00000080: 5848 7c3f 9973 763f 92c4 743f 5e31 823f
00000090: 7660 7d3f 6984 733f b3cd 6c3f a994 7d3f
000000a0: e030 693f bb53 733f edb8 7d3f 3f89 773f
000000b0: cee6 6f3f d0f3 6e3f 8e73 793f c4ae 6d3f
000000c0: c925 6e3f 8e6a 6e3f 3df0 743f 85ca 783f
000000d0: 6673 723f c8bb 773f 1a7f 6e3f 6116 6c3f
000000e0: d2ec 783f a8e6 713f 1eb7 703f 79b5 6e3f
000000f0: 9947 6e3f 49a0 6c3f 0a9e 7a3f a5bf 6f3f
00000100: 0595 6c3f 0139 723f 01e5 6b3f 666b 6f3f
00000110: efeb 6f3f 4115 813f 80ab 743f c511 6f3f
00000120: 0969 763f 0077 6a3f 5dc0 713f c51c 833f
00000130: 1879 713f afa8 6f3f e6e0 7c3f 0d1a 6a3f
00000140: d267 713f 4879 683f b289 7b3f 595d 783f
00000150: dcc3 783f a1a9 743f b832 6d3f 81fc 723f
00000160: aa3d 683f d69e 733f 6551 773f c937 6f3f
00000170: fcdf 6c3f ee6d 723f d94d 703f 748e 713f
00000180: dbb0 713f fb78 6e3f 0016 703f b64c 783f
00000190: d454 703f bea2 713f 957b 783f 9ff0 673f
000001a0: a31c 723f 191a 683f ef92 793f 344b 773f
000001b0: fc57 703f 1210 703f 7e4d 753f 0f46 763f
000001c0: c203 6e3f bd07 6f3f c15c 693f 43c0 763f
000001d0: fa3c 743f 7aa7 743f 9fe8 723f 3b54 743f
000001e0: e8d4 6e3f 18ac 783f d42e 7f3f 47bc 6f3f
000001f0: ee5c 743f db5d 773f db9a 723f 276c 753f
00000200: ef0a 793f dd99 7c3f 7358 813f a73a 713f
00000210: 78de 7a3f 4a14 6a3f 5286 6b3f 8607 773f
00000220: fcf4 6a3f 5593 6e3f 57ac 6f3f b773 793f
00000230: 9381 733f 99e9 6e3f ac93 733f 3b76 733f
00000240: 9fac 6c3f 2968 713f 0de5 6e3f f229 783f
00000250: 9cfe 783f 4701 733f f061 733f 8607 6e3f
00000260: fea7 6a3f 2319 7f3f 11b0 713f 8367 713f
00000270: e996 783f 1ed2 733f 8ad9 7c3f def4 703f
00000280: 41f5 6f3f d7fc 7a3f 5ae8 7b3f 2ae2 683f
00000290: da58 743f a3b9 7e3f 78b1 763f 6775 713f
000002a0: 0fde 643f 8ae3 6d3f bc8b 793f dc7d 6f3f
000002b0: 2272 783f 9499 7e3f 7bc8 803f 0977 763f
000002c0: 5796 723f 0ed5 693f efcc 803f b65b 753f
000002d0: 9c7b 733f 8de0 6c3f f4ca 793f 7e34 6b3f
000002e0: 18f8 7b3f 092d 733f a8f5 803f 01f2 6d3f
000002f0: f1eb 723f 7f4c 763f 31e1 733f 79a3 793f
00000300: 5792 6e3f 39f1 713f 5c03 743f 5660 723f
00000310: 52df 813f dac0 773f b640 6f3f 2101 763f
00000320: ec79 7b3f 293f 713f fa89 623f 4414 773f
00000330: e6fd 6f3f da3b 6f3f f25f 6c3f 6436 713f
00000340: 0e56 5f3f bb2a 773f 74d4 733f bbfd 703f
00000350: 2e12 733f a09d 703f 7d7c 6e3f cc4d 7a3f
00000360: 8f6a 723f 0397 663f 4766 703f cb43 703f
00000370: de8d 753f 861c 693f dfb4 743f 9935 803f
00000380: b193 823f 42c4 6f3f 67c9 703f 7d93 703f
00000390: aa6e 7b3f 82c1 733f d3f4 613f e08f 7b3f
000003a0: ce6d 793f 5513 723f afca 783f b303 833f
000003b0: 1acf 703f c8b0 783f 7697 793f 3008 6d3f
000003c0: efce 743f 18ae 6c3f d796 7b3f c8a6 763f
000003d0: 4a01 6e3f 04f2 763f 9f1c 793f 8264 823f
000003e0: 3cda 793f b7ac 6e3f 3640 763f 0c87 763f
000003f0: 6d7c 7f3f e129 763f c168 743f 018b 7c3f

network.1.bias f4 [256]
0.017289432 0.00087482645 -0.023276255 -0.022315964 -0.0033146292 0.028388748 -0.040068876 0.0084573785
-0.0017572984 -0.069997594 0.031469524 0.0157548 0.042527623 -0.044787113 0.017439129 -0.01557983
-0.012700043 0.0069570323 -0.022144808 -0.018898532 -0.0547509 -0.004489468 -0.0017765973 -0.013845613
-0.038856745 -0.031608213 -0.049474962 0.019136358 -0.04602519 0.00597208 -0.038675006 0.02732416
0.01720509 0.039338287 0.029715197 -0.011166475 -0.007618858 -0.0018248146 -0.001446631 -0.018072458
-0.011874446 -0.0056067705 -0.021601176 0.022034427 -0.025304094 -0.0005611836 0.0042030495 -0.023424467
-0.025619803 -0.0047448464 -0.0053077242 -0.0023828228 -0.0003297947 0.057541993 0.04447879 -0.029500162
0.0060777557 -0.00350107 0.02980417 0.016726816 -0.030569138 0.027633034 -0.011356884 -0.019457478
-0.016163738 -0.011901191 -0.041518353 -0.035105404 -0.052745815 -0.026205422 0.026187373 0.001883402
0.020411275 -0.026610507 -0.025049359 0.014824187 -0.028837182 -0.016236672 0.01038342 -0.041503273
-0.04218767 -0.028926054 0.018602908 0.0056368858 -0.02218136 -0.033632405 -0.0034357621 0.008868446
-0.025951609 0.011458433 -0.027284939 -0.016810795 -0.06921182 0.017654525 -0.03359292 -0.044646256
0.014743199 -0.010742164 -0.003309343 0.012803608 -0.008286476 -0.016692577 -0.014088871 -0.026152855
-0.010990539 0.0054715606 0.047386046 -0.006511469 -0.024567697 -0.03504932 0.029236302 0.01073974
0.00013653193 0.007982383 -0.03728694 -0.0010130308 -0.0329911 -0.030604748 -0.023330256 0.000898209
-0.022374904 0.039865598 0.0005335636 -0.026158744 -0.015561376 -0.02252082 -0.04586615 -0.00082786573
-0.016505476 -0.008001316 0.03171846 0.019263212 0.012764978 -0.023347644 -0.037840392 -0.0013962412
-0.009312627 0.00039686952 -0.028359089 0.061480153 -0.0089508975 -0.032153618 -0.02811626 -0.05681349
-0.016915353 -0.050594285 0.01662299 -0.03447688 -0.029186977 0.000917468 0.02021426 -0.033955473
-0.023714012 0.024895249 0.0046572387 0.021087432 0.04903493 -0.025391027 0.03883665 -0.004295354
-0.019791711 -0.032853063 0.0063248705 -0.0256566 0.0089363875 -0.014392444 -0.0049204924 -0.02519275
-0.054119736 -0.014625661 -0.0037547047 -0.001765514 -0.019531777 0.0015806857 -0.0002586977 -0.014637509
-0.014309771 -0.009484218 -0.022052672 -0.047042914 -0.017897114 -0.014278889 0.020788372 -0.0036311536
0.05743809 -0.057115365 -0.007850257 0.034551255 -0.020675624 -0.03309306 -0.044896726 0.024422707
0.001906669 -0.031649165 -0.008219587 -0.017042534 0.0124164205 -0.04213705 -0.016728438 -0.012458854
0.044686954 0.012757208 -0.054461755 -0.021189645 0.0037559434 -0.007205015 -0.03698081 -0.015673509
-0.04328698 -0.030517045 0.01953387 -0.0036354507 -0.02133999 0.02650048 -0.006261731 -0.022327503
-0.023814194 -0.014591322 0.014987745 -0.034895256 -0.02938163 -0.056772694 0.014477643 0.007685146
0.032139182 -0.0051405877 -0.032052156 0.0012100176 0.04692484 0.026684346 -0.023594854 0.027811557
-0.005349222 -0.005227282 0.004267081 0.023955055 -0.017655434 0.032111723 -0.014003045 -0.041783333
0.006228169 -0.0016270536 -0.005371954 -0.009603593 0.013895832 0.005732117 -0.013721639 0.018200006
-0.007209554 -0.0148112895 -0.020333994 0.0048401975 0.028991086 0.005121764 -0.010947456 0.044111237
00000000: 91a2 8d3c 9c54 653a d8ad bebc f8cf b6bc
00000010: 403a 59bb 858f e83c 431f 24bd d190 0a3c
00000020: 2655 e6ba e65a 8fbd 30e6 003d 3610 813c
00000030: 7231 2e3d b172 37bd 81dc 8e3c 8b42 7fbc
00000040: d713 50bc d1f7 e33b 0769 b5bc 18d1 9abc
00000050: 7b42 60bd 631c 93bb b7dc e8ba b6d8 62bc
00000060: 4028 1fbd 9d77 01bd 42a6 4abd dac3 9c3c
00000070: e984 3cbd 70b1 c33b af69 1ebd ebd6 df3c
00000080: b0f1 8c3c 2f21 213d 496d f33c 97f3 36bc
00000090: 9da7 f9bb 9e2e efba e29c bdba b10c 94bc
000000a0: 098d 42bc 00b9 b7bb f3f4 b0bc 8b81 b43c
000000b0: 884a cfbc 651c 13ba bcb9 893b abe4 bfbc
000000c0: 9fe0 d1bc a87a 9bbb 6bec adbb 2229 1cbb
000000d0: 4ce8 acb9 27b1 6b3d 642f 363d 53aa f1bc
000000e0: e927 c73b 3572 65bb e027 f43c ad06 893c
000000f0: 216c fabc ac5e e23c 3912 3abc 4a65 9fbc
00000100: d169 84bc 37fd 42bc 260f 2abd afca 0fbd
00000110: ff0b 58bd c1ac d6bc e786 d63c 7cdc f63a
00000120: 8c35 a73c 47fe d9bc 5034 cdbc 26e1 723c
00000130: f43b ecbc c502 85bc 381f 2a3c 56ff 29bd
00000140: facc 2cbd 55f6 ecbc 2065 983c a0b5 b83b
00000150: afb5 b5bc 22c2 09bd 862a 61bb f54c 113c
00000160: 7898 d4bc 27bc 3b3c aa84 dfbc cbb6 89bc
00000170: edbe 8dbd 39a0 903c bb98 09bd fede 36bd
00000180: 758d 713c e7ff 2fbc 90e1 58bb 39c6 513c
00000190: 00c4 07bc dfbe 88bc 02d5 66bc 833e d6bc
000001a0: a911 34bc c74a b33b df17 423d 295e d5bb
000001b0: 3242 c9bc e08f 0fbd f880 ef3c bcf5 2f3c
000001c0: 032a 0f39 8ac8 023c 31ba 18bd acc7 84ba
000001d0: ad21 07bd cfb6 fabc 181f bfbc c975 6b3a
000001e0: 934b b7bc 1c4a 233d d9de 0b3a dd4a d6bc
000001f0: 24f5 7ebc 957d b8bc 25de 3bbd 2105 59ba
00000200: 7e36 87bc f417 03bc 37eb 013d e2cd 9d3c
00000210: 3324 513c 8f43 bfbc 87fe 1abd 1502 b7ba
00000220: fd93 18bc ed12 d039 5251 e8bc 9dd2 7b3d
00000230: c9a6 12bc 83b3 03bd 1254 e6bc 43b5 68bd
00000240: 1192 8abc f43b 4fbd f02c 883c a137 0dbd
00000250: 8719 efbc 3c82 703a 6098 a53c e514 0bbd
00000260: e343 c2bc 1ff1 cb3c c09b 983b 8dbf ac3c
00000270: dad8 483d d800 d0bc 2e13 1f3d 0ac0 8cbb
00000280: 3a22 a2bc ef90 06bd dc40 cf3b ca2d d2bc
00000290: ed69 123c 49ce 6bbc 153c a1bb 0761 cebc
000002a0: a8ac 5dbd 78a0 6fbc 7e11 76bb d268 e7ba
000002b0: 1b01 a0bc 032f cf3a d1a1 87b9 2ad2 6fbc
000002c0: 8873 6abc b263 1bbc cea7 b4bc 12b0 40bd
000002d0: f89c 92bc 00f2 69bc 604c aa3c a6f8 6dbb
000002e0: 3444 6b3d cdf1 69bd 5d9e 00bc 9e85 0d3d
000002f0: ed5f a9bc 978c 07bd a1e5 37bd 2112 c83c
00000300: 32e9 f93a 8ea2 01bd 72ab 06bc c99c 8bbc
00000310: 3e6e 4b3c e697 2cbd 140a 89bc 3920 4cbc
00000320: ab09 373d 9c03 513c 4a13 5fbd e895 adbc
00000330: 4626 763b 0c18 ecbb 3179 17bd bb65 80bc
00000340: b04d 31bd e2fe f9bc 7f05 a03c be40 6ebb
00000350: 34d1 aebc 8917 d93c 352f cdbb 2be8 b6bc
00000360: fc15 c3bc 7110 6fbc 298f 753c 54ee 0ebd
00000370: beb1 f0bc 7c8a 68bd a333 6d3c add3 fb3b
00000380: 60a4 033d 6072 a8bb 1f49 03bd 7499 9e3a
00000390: 4334 403d 2199 da3c ff49 c1bc 10d5 e33c
000003a0: 8748 afbb 9f49 abbb dfd2 8b3b 643d c43c
000003b0: 21a2 90bc 9587 033d 076d 65bc 0025 2bbd
000003c0: ab15 cc3b dc42 d5ba 3707 b0bb 6358 1dbc
000003d0: 58ab 633c 7cd4 bb3b bad0 60bc 2e18 953c
000003e0: 1f3e ecbb 0dab 72bc 7a93 a6bc 859a 9e3b
000003f0: b77e ed3c 78d4 a73b f55c 33bc fcad 343d

network.1.running_mean f4 [256]
348339.56 -470174.84 475358.06 -2.5475605e+06 -417796.34 -6.244936e+06 1.0417511e+06 520678.6
472214.72 -626636.2 63612.945 1.3487832e+06 -1.0623021e+06 4.164715e+06 219904.75 218746.72
-274182.72 -2.8341565e+06 -464737.25 -483370.5 -230233.11 491990.72 5.554758e+06 3.6994222e+06
1.2370882e+06 378389.25 4.0052488e+06 794324.5 1.6205858e+06 -2.3579838e+06 -231573.83 -3.7907558e+06
-316178.7 -148500.22 -2.0244768e+06 447383.53 -152997.78 -1.373143e+06 -2.7469512e+06 2.0590354e+06
-1.096415e+06 42926.227 2.3831532e+06 890058.25 4.263122e+06 -282012.06 1.8075388e+06 341668.34
-559897.25 3.1576698e+06 1.3002495e+06 -573168.8 -2.971433e+06 -3.921587e+06 180527.3 477405.53
382089.16 1.085291e+06 -315186.66 -1.4672322e+06 -859955.8 322484.8 1.9974866e+06 1.8383081e+06
-4.2524015e+06 -2.578355e+06 -120406.86 -314737.44 5.103688e+06 -174437.08 -5.666262e+06 -421599.06
36282.652 -313567.8 425625.16 1.0393398e+06 -109441.03 183866.52 -933941.94 -135439.12
-186214.03 2.472732e+06 605512.1 -4.03467e+06 5.111841e+06 457693.16 -405054.84 441790.62
2.9621125e+06 -4.2553965e+06 -1.1897288e+06 -2.4677742e+06 71692.02 -1.7102894e+06 100316.34 -305888.8
-1.2544884e+06 525695.94 778757.1 571626.1 -396098.44 316949.62 1.7394182e+06 207378.23
-3.0519262e+06 -1.5437866e+06 -1.8381904e+06 3.1703215e+06 125464.375 -222634.9 1.0828106e+06 -2.4314185e+06
-968449.56 2.2242105e+06 200620.69 -489529.2 456041.47 287804.12 656832.5 -139560.11
3.8102375e+06 531871.25 -189499.23 -8.468904e+06 -549355.3 -301190.16 1.4149599e+06 717825.56
-2.6995215e+06 878296.75 -744367.25 -263007.9 3.0849962e+06 -473454.38 -460483.88 1.526472e+06
95555.06 -3.287376e+06 -5.298753e+06 -1.2184514e+06 4.6376505e+06 -3.2046642e+06 -273417.53 -230273.73
-35621.395 138452.81 -3.0336435e+06 -238172.86 5.3802495e+06 305036.56 -1.1408901e+06 -140809.78
132435.95 -699114.56 -834212.7 -6.6454215e+06 -8.682371e+06 388300.2 -1.7606162e+06 -416538.88
-534090.56 2.6042872e+06 -2.1498128e+06 -1.2983518e+06 -1.0217884e+06 -804234.56 7.8780105e+06 -1.6633149e+06
-191842.0 -1.9894491e+06 471197.5 288787.94 1.7199681e+06 -124343.52 3.690618e+06 1.126832e+06
791663.94 -201815.75 -642526.5 842847.1 -98049.195 2.83077e+06 3.1765812e+06 -484787.2
-6.8111825e+06 402904.9 -165311.64 -321837.6 2.0043925e+06 -1.2795149e+06 6.4153695e+06 -3.062761e+06
223253.0 148763.6 -2.2250675e+06 -450864.38 856973.06 842369.5 -272646.78 -379754.06
-8.685502e+06 383314.38 -2.8206275e+06 150266.92 -1.1055189e+06 -8.617735e+06 -301401.28 705465.9
1.0065074e+06 547336.6 -3.8320638e+06 -1.4996931e+06 3.1077902e+06 -463205.7 -276917.06 280989.88
2.404555e+06 -2.2898792e+06 -1.0588424e+06 -1.9383906e+06 4.8382695e+06 -142727.53 285643.12 303988.9
-797096.56 477325.66 1.7053794e+06 -303396.75 -2.6999635e+06 -2.3530978e+06 -6.2146655e+06 -71273.7
6.3389705e+06 -475176.53 296774.22 560162.3 140475.8 -367866.6 1.1595172e+06 -128540.38
608315.6 -493569.34 4.7635025e+06 -908399.25 -648935.5 200678.1 -252380.92 -549569.56
5.4720315e+06 1.9779236e+06 -479573.88 5.457013e+06 8.329382e+06 -47926.965 944698.6 855092.56
00000000: 7216 aa48 db93 e5c8 c21b e848 a27d 1bca
00000010: 8b00 ccc8 9094 beca 7255 7e49 d33c fe48
00000020: d792 e648 c3fc 18c9 f27c 7847 7aa5 a449
00000030: f1ac 81c9 ac31 7e4a 30c0 5648 ae9e 5548
00000040: d7e0 85c8 b2fb 2cca 28ec e2c8 5005 ecc8
00000050: 47d6 60c8 d73a f048 8c84 a94a 79cb 614a
00000060: 0203 9749 a8c2 b848 0376 744a 48ed 4149
00000070: 4ed3 c549 7feb 0fca 7525 62c8 8f5e 67ca
00000080: 5662 9ac8 0e05 11c8 e620 f7c9 f172 da48
00000090: 7269 15c8 b89e a7c9 1da9 27ca db58 fb49
000000a0: f8d6 85c9 3aae 2747 c574 114a a44c 5949
000000b0: a419 824a 82b3 89c8 96a5 dc49 8bd4 a648
000000c0: 94b1 08c9 97ba 404a ccb8 9e49 0def 0bc9
000000d0: a45c 35ca cc5a 6fca d34b 3048 b11b e948
000000e0: 2591 ba48 587b 8449 55e6 99c8 021b b3c9
000000f0: 3df3 51c9 9a76 9d48 75d5 f349 2167 e049
00000100: e3c5 81ca cc5e 1dca 6e2b ebc7 2eae 99c8
00000110: 90c0 9b4a 4559 2ac8 aceb acca e2db cdc8
00000120: a7ba 0d47 fa1b 99c8 25d3 cf48 bdbe 7d49
00000130: 84c0 d5c7 a18e 3348 5f03 64c9 c843 04c8
00000140: 82d9 35c8 70ec 164a 82d4 1349 b841 76ca
00000150: 4200 9c4a a57b df48 dbc7 c5c8 d4b7 d748
00000160: 02cb 344a 49dd 81ca 063b 91c9 f99e 16ca
00000170: 0306 8c47 8bc6 d0c9 2cee c347 1a5c 95c8
00000180: c322 99c9 ff57 0049 5220 3e49 a28e 0b49
00000190: 4e68 c1c8 b4c2 9a48 d254 d449 8f84 4a48
000001a0: 5946 3aca 5573 bcc9 7363 e0c9 4680 414a
000001b0: 300c f547 ba6a 59c8 d52d 8449 ea66 14ca
000001c0: 1970 6cc9 4ac1 074a 2ceb 4348 2607 efc8
000001d0: 2fad de48 8487 8c48 085c 2049 074a 08c8
000001e0: f68e 684a f4d9 0149 cf0e 39c8 a839 01cb
000001f0: b51e 06c9 c510 93c8 7fb9 ac49 1940 2f49
00000200: 06c4 24ca 8c6d 5649 f4ba 35c9 fd6b 80c8
00000210: 114b 3c4a cc2d e7c8 7cd8 e0c8 4056 ba49
00000220: 88a1 ba47 40a5 48ca 82b4 a1ca 9bbc 94c9
00000230: a587 8d4a e198 43ca 3181 85c8 6fe0 60c8
00000240: 6525 0bc7 3435 0748 ae28 39ca 3797 68c8
00000250: 3331 a44a 92f1 9448 d144 8bc9 7282 09c8
00000260: fd54 0148 a9ae 2ac9 4baa 4bc9 5bcd caca
00000270: 837b 04cb 8699 bd48 42eb d6c9 5c63 cbc8
00000280: a964 02c9 fdf3 1e4a d336 03ca 7e7d 9ec9
00000290: c675 79c9 a958 44c9 f56a f04a 970a cbc9
000002a0: 8058 3bc8 49da f2c9 b013 e648 7e02 8d48
000002b0: 01f5 d149 c3db f2c7 e841 614a 808d 8949
000002c0: ff46 4149 f015 45c8 e8dd 1cc9 f2c5 4d49
000002d0: 9980 bfc7 c8c6 2c4a 15e2 414a 66b6 ecc8
000002e0: 5ddc cfca 1dbb c448 e96f 21c8 b325 9dc8
000002f0: 44ad f449 d730 9cc9 13c8 c34a a4ef 3aca
00000300: 4005 5a48 e646 1148 aece 07ca 0c26 dcc8
00000310: d138 5149 18a8 4d49 d920 85c8 426d b9c8
00000320: be87 04cb 4c2a bb48 4e28 2cca bbbe 1248
00000330: 77f3 86c9 077f 03cb 292b 93c8 9e3b 2c49
00000340: b6ba 7549 8aa0 0549 ffe3 69ca 6911 b7c9
00000350: 39af 3d4a b62c e2c8 a236 87c8 bc33 8948
00000360: 2cc3 124a 5dc3 0bca d340 81c9 b59e ecc9
00000370: fba6 934a e261 0bc8 6479 8b48 9d6e 9448
00000380: 899a 42c9 b511 e948 1b2d d049 9824 94c8
00000390: eeca 24ca 279f 0fca 13a8 bdca da34 8bc7
000003a0: 3573 c14a 1105 e8c8 c7e8 9048 25c2 0849
000003b0: f32e 0948 539f b3c8 ea8a 8d49 310e fbc7
000003c0: ba83 1449 2b00 f1c8 dd5e 914a f4c6 5dc9
000003d0: 786e 1ec9 86f9 4348 3b77 76c8 192c 06c9
000003e0: 3ffe a64a 1d72 f149 bc2a eac8 ea88 a64a
000003f0: 4c31 fe4a f736 3bc7 aaa3 6649 49c3 5049

network.1.running_var f4 [256]
3.92292e+10 7.146953e+10 7.305855e+10 2.0983466e+12 5.643233e+10 1.2609186e+13 3.5087725e+11 8.76715e+10
7.209586e+10 1.269536e+11 1.3327926e+09 5.881692e+11 3.6485117e+11 5.6079024e+12 1.5646384e+10 1.5460202e+10
2.4296944e+10 2.5970294e+12 6.983065e+10 7.554253e+10 1.7137959e+10 7.8261125e+10 9.976112e+12 4.424818e+12
4.9478664e+11 4.629166e+10 5.186689e+12 2.0399206e+11 8.491159e+11 1.7976538e+12 1.733582e+10 4.6459844e+12
3.2319908e+10 7.129367e+09 1.3251133e+12 6.471258e+10 7.5687613e+09 6.096111e+11 2.4396811e+12 1.3707499e+12
3.8866223e+11 5.978466e+08 1.8362419e+12 2.5612775e+11 5.876025e+12 2.5714295e+10 1.05632295e+12 3.774142e+10
1.0135062e+11 3.2237646e+12 5.4661176e+11 1.0621651e+11 2.854685e+12 4.972272e+12 1.0537216e+10 7.368953e+10
4.7198265e+10 3.8081256e+11 3.2118946e+10 6.9602725e+11 2.390936e+11 3.3623634e+10 1.2900224e+12 1.0925966e+12
5.84652e+12 2.149396e+12 4.685495e+09 3.2027015e+10 8.4216864e+12 9.838023e+09 1.0380589e+13 5.746657e+10
4.4114998e+08 3.1791608e+10 5.857125e+10 3.4924973e+11 3.8727393e+09 1.0931313e+10 2.8200154e+11 5.9304694e+09
1.1205747e+10 1.9768849e+12 1.18536176e+11 5.263144e+12 8.448592e+12 6.772964e+10 5.304611e+10 6.310469e+10
2.836834e+12 5.854734e+12 4.5763314e+11 1.9689654e+12 1.683566e+09 9.4572387e+11 3.2564823e+09 3.025049e+10
5.0881348e+11 8.9348506e+10 1.9606687e+11 1.05645785e+11 5.072377e+10 3.2477272e+10 9.782137e+11 1.3904354e+10
3.0114696e+12 7.7054555e+11 1.09247116e+12 3.2496238e+12 5.0846566e+09 1.6017976e+10 3.790779e+11 1.9113837e+12
3.0323337e+11 1.5994741e+12 1.3005722e+10 7.74776e+10 6.723961e+10 2.6772871e+10 1.3948748e+11 6.3110733e+09
4.693891e+12 9.1461075e+10 1.1613034e+10 2.3189183e+13 9.757458e+10 2.933201e+10 6.473026e+11 1.6659376e+11
2.3561414e+12 2.4940988e+11 1.7914159e+11 2.2359898e+10 3.0770916e+12 7.247111e+10 6.8556657e+10 7.5336555e+11
2.9548772e+09 3.4940296e+12 9.077715e+12 4.799987e+11 6.953873e+12 3.320441e+12 2.417049e+10 1.7143763e+10
4.101168e+08 6.207416e+09 2.9754998e+12 1.8337538e+10 9.359145e+12 3.00918e+10 4.2083218e+11 6.411091e+09
5.6710963e+09 1.5802571e+11 2.2499412e+11 1.4278236e+13 2.4372929e+13 4.8740504e+10 1.0022e+12 5.6097014e+10
9.222796e+10 2.192824e+12 1.4942549e+12 5.4501383e+11 3.3755896e+11 2.0911458e+11 2.006613e+13 8.9447943e+11
1.1898853e+10 1.2796625e+12 7.177541e+10 2.695775e+10 9.564651e+11 4.998937e+09 4.403789e+12 4.105258e+11
2.0262399e+11 1.3159299e+10 1.33477245e+11 2.2968146e+11 3.1025628e+09 2.5908182e+12 3.262501e+12 7.598387e+10
1.4999427e+13 5.2491043e+10 8.835664e+09 3.348403e+10 1.29894e+12 5.2931356e+11 1.3306773e+13 3.0328666e+12
1.6125751e+10 7.1644027e+09 1.6007092e+12 6.5723785e+10 2.3744689e+11 2.2941688e+11 2.4031302e+10 4.662406e+10
2.4390499e+13 4.7500136e+10 2.5722767e+12 7.2905513e+09 3.9514587e+11 2.4011377e+13 2.9362625e+10 1.6090798e+11
3.275301e+11 9.686676e+10 4.7478184e+12 7.2715285e+11 3.1227028e+12 6.936851e+10 2.4789043e+10 2.5515807e+10
1.8693711e+12 1.6953179e+12 3.624849e+11 1.214802e+12 7.5684984e+12 6.58649e+09 2.637848e+10 2.9875212e+10
2.0542054e+11 7.366495e+10 9.4029926e+11 2.9759572e+10 2.3569312e+12 1.7902373e+12 1.2487226e+13 1.6424224e+09
1.2991763e+13 7.300312e+10 2.847101e+10 1.01451784e+11 6.380863e+09 4.376204e+10 4.3467955e+11 5.3475615e+09
1.1963383e+11 7.876383e+10 7.3363955e+12 2.6679909e+11 1.3615291e+11 1.3019553e+10 2.0594203e+10 9.765142e+10
9.681178e+12 1.2648558e+12 7.436052e+10 9.628094e+12 2.2431419e+13 7.439079e+08 2.885368e+11 2.3640539e+11
00000000: e123 1251 541f 8551 0815 8851 9a47 f453
00000010: 103a 5251 e17c 3755 d463 a352 074d a351
00000020: fc49 8651 3278 ec51 9ae1 9e4e 9ef1 0853
00000030: a6e5 a952 2136 a354 3826 6950 fe5f 6650
00000040: be06 b550 c12a 1754 d911 8251 7cb5 8c51
00000050: 2060 7f50 d0c5 9151 ea2b 1155 77c7 8054
00000060: 2a67 e652 2b73 2c51 d8f3 9654 7ffb 3d52
00000070: 40b3 4553 4246 d153 7429 8150 4837 8754
00000080: 55cd f050 c178 d44f 7443 9a53 ba12 7151
00000090: 1191 e14f a7ef 0d53 1502 0e54 8893 9f53
000000a0: 26fc b452 a989 0e4e 46c4 d553 9d89 6e52
000000b0: cc03 ab54 2096 bf50 c1f1 7553 0699 0c51
000000c0: bec7 bc51 d6a5 3b54 3389 fe52 fbd7 c551
000000d0: 1f2a 2654 50b6 9054 4a04 1d50 e841 8951
000000e0: c6d3 2f51 6554 b152 074e ef50 750e 2253
000000f0: 5bac 5e52 fe83 fa50 aa2d 9653 d563 7e53
00000100: f827 aa54 fe38 fa53 7da3 8b4f af9e ee50
00000110: 741a f554 1499 1250 b50e 1755 6414 5651
00000120: 515b d24d aedd ec50 e631 5a51 d0a1 a252
00000130: 50d5 664f a6e3 2250 3451 8352 e4bd b04f
00000140: 88fa 2650 c323 e653 74ca dc51 7b2d 9954
00000150: eae2 f554 0550 7c51 b69c 4551 5215 6b51
00000160: 1f20 2554 2b65 aa54 1f1a d552 be37 e553
00000170: 5bb2 c84e 8931 5c53 fa19 424f 3b62 e150
00000180: 4bef ec52 b06c a651 fc99 3652 d6c7 c451
00000190: f5f5 3c51 7bf9 f150 15c2 6353 e730 4f50
000001a0: 654a 2f54 1868 3353 5b5c 7e53 2b27 3d54
000001b0: da88 974f bbaf 6e50 9b85 b052 ac83 de53
000001c0: 3c34 8d52 0b34 ba53 e4cc 4150 3350 9051
000001d0: b07c 7a51 3379 c750 68e8 0152 ab15 bc4f
000001e0: 379c 8854 0a5c aa51 360c 2d50 38b9 a855
000001f0: 2fbf b551 5f8a da50 3eb6 1653 0c27 1b52
00000200: 3e25 0954 f347 6852 afd6 2652 1f98 a650
00000210: 3d1c 3354 ebfc 8651 b964 7f51 1668 2f53
00000220: d91f 304f 1961 4b54 2019 0455 4e84 df52
00000230: 6462 ca54 6d46 4154 8d15 b450 4476 7f50
00000240: 168f c34d d3fe b84f 6732 2d54 14a0 8850
00000250: 8831 0855 8e33 e050 1bf7 c352 be10 bf4f
00000260: 0803 a94f 442c 1352 c78a 5152 93c6 4f55
00000270: 1e56 b155 9192 3551 c657 6953 48fa 5051
00000280: b8c9 ab51 3f47 ff53 44f4 ad53 b6ca fd52
00000290: 2a30 9d52 cdc0 4252 1400 9255 2143 5053
000002a0: 864e 3150 eaf8 9453 2fb1 8551 d4d9 c850
000002b0: c3b1 5e53 ddfa 944f c92a 8054 7d2a bf52
000002c0: 53b5 3c52 be16 4450 e99e f851 54e8 5552
000002d0: 5aed 384f 33ce 1654 0ee7 3d54 ef87 8d51
000002e0: 3845 5a55 5c8b 4351 62a9 0350 b879 f950
000002f0: 6e37 9753 187b f652 98a3 4155 3c89 3054
00000300: dc4a 7050 0e84 d54f da58 ba53 16d7 7451
00000310: c023 5d52 3fa9 5552 120c b350 2bb0 2d51
00000320: d876 b155 a9f3 3051 e9b9 1554 7e46 d94f
00000330: 0f01 b852 adb4 ae55 c3c4 da50 74db 1552
00000340: a184 9852 ac6d b451 012e 8a54 b04d 2953
00000350: e6c3 3554 7c35 8151 59b1 b850 8a1b be50
00000360: 9a9f d953 695c c553 91cb a852 ec6b 8d53
00000370: b545 dc54 ee4a c44f f588 c450 7296 de50
00000380: 1350 3f52 2f36 8951 34ee 5a53 e1b9 dd50
00000390: 0331 0954 3b69 d053 8bb6 3555 c1ca c34e
000003a0: 170e 3d55 9afa 8751 2420 d450 fbf7 bc51
000003b0: 1f2a be4f bc06 2351 d769 ca52 a85e 9f4f
000003c0: dbd5 de51 85b5 9251 6884 d554 dc79 7852
000003d0: c49a fd51 a701 4250 5370 9950 d3e3 b551
000003e0: 33e1 0c55 a43f 9353 dc81 8a51 721b 0c55
000003f0: c635 a355 895c 314e 445c 8652 702b 5c52

network.4.weight f4 [128, 256]
0.020038182 0.0016507694 -0.005770356 -0.037803154 -0.005162838 0.009452321 0.006038927 0.023923147
-0.013298544 0.015399036 0.040150635 0.011223006 0.01745313 0.008879353 0.03759682 0.021243608
-0.0009850479 -0.008529632 0.01492679 0.03634219 -0.00012947527 0.001484414 -0.00699542 0.0025901238
-0.01721443 -0.014070723 0.032627746 -0.01331071 0.0033945616 0.016907727 -0.006186886 -0.021821199
0.01913398 -0.04219964 0.013630784 0.025948662 0.025396366 0.010696953 -0.022682237 0.030855084
0.0064807055 -0.011208048 0.00618346 -0.0052137044 0.028303253 -0.021965005 0.03816101 -0.0061332816
-0.00057687995 -0.01832221 -0.00722567 0.02763559 -0.0003719557 0.0031686744 -0.020670366 0.005135015
-0.0020986628 0.0012659914 0.00372664 -0.008280376 0.030029144 -0.002730239 0.015128618 -0.020123007
-0.029655999 -0.031575702 -0.007256646 -0.026904473 0.019145582 0.019986948 0.008647374 -0.0013794174
0.00045961805 -0.019850276 -0.019293904 0.029784169 0.012227491 0.012610895 0.015153812 0.003905496
0.002622398 0.017106498 -0.005431274 0.025625588 -0.0017905494 0.06516717 0.01739609 0.008236837
0.008460151 0.009942396 0.012231451 0.00044129023 0.022905573 0.004015946 0.024979055 0.021760577
-0.000621148 -9.251819e-05 0.0150632365 -0.007867022 0.01609004 0.037277665 0.00472149 -0.010967977
-0.019110918 -0.018222407 -0.021811135 -2.805164e-05 0.042089622 -0.008431802 -0.0022168406 0.019566203
0.0022280982 -0.003271684 0.014864766 -0.023822838 0.0022594703 0.0028552131 -0.016059985 -0.016826108
-0.006298636 -0.013561438 -0.03975497 0.021378176 0.015617076 0.0043735676 0.030750707 0.012488876
0.009847077 0.006853234 0.020141618 -0.033609755 0.03526168 0.01685268 0.01960156 0.014402921
0.007074163 0.0040318756 -0.019098844 0.008382575 0.046269197 0.030997545 0.017115884 0.028446158
0.023489848 0.017729511 0.008021795 0.022195939 0.013987045 -0.0045196307 0.019070549 0.0034435529
0.004686838 0.017083045 -0.0066727083 -0.004301856 -0.014371415 -0.012095755 0.006149825 -0.028647969
0.02738737 0.035011064 0.004411063 0.0011994571 -0.021906525 0.030249098 0.002469225 -0.019970661
-0.019272886 -0.0005818236 0.0017920872 -0.012565208 0.017082157 0.033462297 0.023430416 -0.0020173881
0.017362667 -0.0014039556 0.041833635 0.0036205621 0.008324054 -0.019844756 -0.022288112 0.0044736946
-0.008497495 0.035152625 0.04451205 0.007460611 -0.0121542895 0.015061248 0.008708939 0.0053213686
0.0038060998 0.01887821 0.0027335586 0.008579731 0.038486708 0.026791483 -0.01575597 0.025191532
0.007399557 -0.014855205 -0.006548151 0.01790296 -0.005788772 0.007236657 0.012086286 -0.023279916
-0.016591458 0.035936773 0.0050271526 -0.0059112925 -0.013527733 0.01320857 0.0042430214 0.046528764
-0.024941988 -0.017000712 0.014720666 0.02812571 0.003810477 0.0056049544 0.023025295 0.027778693
0.036757782 -0.0013428791 -0.008227021 -0.0035392572 0.013320661 -0.015315993 -0.0045583965 0.009480379
0.038799305 0.037503727 0.036224954 0.054002196 0.01600716 -0.000758736 0.0070984936 -0.0014806291
-0.017833045 0.0032967215 0.0310003 0.041339766 0.0076654754 0.027874637 0.015331119 0.03710721
0.021998351 0.00249723 0.028191363 -0.0028253756 0.03879961 -0.005165207 -0.0025902241 -0.011608013
00000000: 1d27 a43c a15e d83a 4115 bdbb 7bd7 1abd
00000010: 062d a9bb e8dd 1a3c 31e2 c53b 7afa c33c
00000020: 23e2 59bc 3d4c 7c3c fe74 243d b3e0 373c
00000030: def9 8e3c b57a 113c 20ff 193d 1307 ae3c
00000040: b91c 81ba dfbf 0bbc 7f8f 743c 8cdb 143d
00000050: c1c3 07b9 ab90 c23a d639 e5bb 11bf 293b
00000060: 4705 8dbc e488 66bc aca4 053d 2a15 5abc
00000070: 4b77 5e3b 1382 8a3c 5dbb cabb 5fc2 b2bc
00000080: ddbe 9c3c 88d9 2cbd a753 5f3c 4a92 d43c
00000090: 0a0c d03c 4642 2f3c 19d0 b9bc cdc3 fc3c
000000a0: 195c d43b f6a1 37bc 9f9e ca3b b9d7 aabb
000000b0: 39dc e73c f4ef b3bc b84e 1c3d b2f9 c8bb
000000c0: c239 17ba 7618 96bc 50c5 ecbb 0864 e23c
000000d0: 0d03 c3b9 89a9 4f3b e654 a9bc a143 a83b
000000e0: b889 09bb 9fef a53a a53a 743b 6aaa 07bc
000000f0: aeff f53c cfed 32bb 06de 773c 01d9 a4bc
00000100: 23f1 f2bc 8655 01bd 29c9 edbb c566 dcbc
00000110: 32d7 9c3c abbb a33c b7ad 0d3c 91cd b4ba
00000120: e4f8 f039 0c9d a2bc 400e 9ebc eefd f33c
00000130: d055 483c ed9d 4e3c b247 783c 5af3 7f3b
00000140: 8adc 2b3b ed22 8c3c d4f8 b1bb c1ec d13c
00000150: deb0 eaba 5d76 853d 3f82 8e3c ccf3 063c
00000160: 729c 0a3c 6ee5 223c 6d66 483c f95c e739
00000170: 78a4 bb3c 3298 833b e0a0 cc3c 3d43 b23c
00000180: 89d4 22ba 5306 c2b8 cbcb 763c afe4 00bc
00000190: 42cf 833c 77b0 183d bbb6 9a3b 08b3 33bc
000001a0: 808e 9cbc 2847 95bc 44ad b2bc 7050 ebb7
000001b0: 2b66 2c3d 8a25 0abc 6a48 11bb 4d49 a03c
000001c0: 4905 123b c069 56bb 598b 733c 1d28 c3bc
000001d0: 9f13 143b 871e 3b3b 3b90 83bc e8d6 89bc
000001e0: ca64 cebb cb30 5ebc 1cd6 22bd 4921 af3c
000001f0: c4de 7f3c 2550 8f3b e8e8 fb3c 249e 4c3c
00000200: a255 213c 1891 e03b 0900 a53c 62aa 09bd
00000210: 8d6e 103d a20e 8a3c 7393 a03c 3bfa 6b3c
00000220: 61ce e73b d31d 843b 2e75 9cbc 1157 093c
00000230: c584 3d3d 90ee fd3c 9c36 8c3c eb07 e93c
00000240: c86d c03c 7b3d 913c d96d 033c 42d4 b53c
00000250: eb29 653c 6919 94bb d739 9c3c 3bad 613b
00000260: 0c94 993b bef1 8b3c bca6 dabb 95f6 8cbb
00000270: 1576 6bbc 462d 46bc 7984 c93b 25af eabc
00000280: 7a5b e03c c367 0f3d ae8a 903b 1a37 9d3a
00000290: 5075 b3bc f5cc f73c b9d2 213b 8399 a3bc
000002a0: 2ce2 9dbc 8585 18ba 78e4 ea3a 4dde 4dbc
000002b0: e1ef 8b3c c30f 093d 25f1 bf3c 2836 04bb
000002c0: 273c 8e3c ef04 b8ba bf59 2b3d f446 6d3b
000002d0: 9d61 083c 7891 a2bc 8f95 b6bc 1298 923b
000002e0: 1439 0bbc 33fc 0f3d 4452 363d 2478 f43b
000002f0: c922 47bc 74c3 763c f0af 0e3c e05e ae3b
00000300: c26f 793b 7aa6 9a3c 8125 333b 0092 0c3c
00000310: 3da4 1d3d d079 db3c aa12 81bc 795e ce3c
00000320: fc77 f23b 3f63 73bc df91 d6bb 3aa9 923c
00000330: bdaf bdbb 7b21 ed3b 8f05 463c 86b5 bebc
00000340: cfea 87bc 7032 133d d0ba a43b 84b3 c1bb
00000350: 6da3 5dbc c268 583c 0b09 8b3b f294 3e3d
00000360: 2453 ccbc 1445 8bbc f32e 713c e467 e63c
00000370: 32b9 793b c4a9 b73b 8b9f bc3c 2490 e33c
00000380: 548f 163d 8c03 b0ba a1ca 06bc e2f2 67bb
00000390: e73e 5a3c eeef 7abc 9a5e 95bb 9753 1b3c
000003a0: 05ec 1e3d 829d 193d 9e60 143d 6831 5d3d
000003b0: 7321 833c e9e5 46ba 7b9a e83b ab11 c2ba
000003c0: 9b16 92bc cf0d 583b 57f4 fd3c e353 293d
000003d0: ab2e fb3b 5a59 e43c 602f 7b3c bbfd 173d
000003e0: e335 b43c 91a8 233b 93f1 e63c f029 39bb
000003f0: 57ec 1e3d e640 a9bb c0c0 29bb 892f 3ebc

network.4.bias f4 [128]
6.6425764e-07 1.097594e-07 -4.5870922e-07 -7.968436e-08 8.810597e-08 9.409271e-07 1.8413748e-07 -5.709633e-07
4.806686e-07 1.2396451e-07 2.4753703e-08 -6.6080736e-07 -4.4980916e-07 1.7586704e-07 -6.169816e-07 8.7118093e-07
4.528138e-07 -2.0195702e-07 -1.9953623e-07 -1.9338039e-07 2.8273297e-07 6.40427e-07 1.3201686e-07 -7.6704674e-07
-1.588498e-07 8.085374e-08 3.3287506e-09 1.3538245e-07 3.0259122e-07 -7.049441e-08 8.07854e-07 -5.717293e-07
-8.5697366e-07 4.533968e-08 3.8183848e-07 -1.0473296e-07 -5.736828e-07 2.1770312e-07 -3.674231e-07 -1.1318422e-09
5.658475e-07 -4.158817e-07 3.938096e-08 -8.891511e-07 -3.1478336e-07 4.1692925e-07 -6.27546e-07 6.0482887e-07
3.1289454e-07 -3.8732364e-07 -2.3973396e-07 -2.016187e-08 -8.177253e-07 3.6088988e-08 3.1031567e-07 -4.4501874e-07
-6.0156805e-07 -1.0691264e-06 -1.4307427e-07 9.8574816e-08 -2.1534598e-07 -1.3550434e-06 2.521452e-07 -3.9391588e-07
-2.2530281e-07 -1.419498e-07 7.731368e-07 7.3185184e-08 2.619765e-08 8.5133394e-07 1.2569292e-07 2.8689405e-07
-6.158052e-10 -1.8919702e-07 -9.724296e-08 1.4375344e-07 -4.879449e-07 -1.8551527e-08 -7.669037e-07 -9.989716e-08
3.0979726e-07 -5.7974506e-07 -2.1337702e-07 2.0401417e-07 6.6966777e-07 -1.4801148e-07 -1.8672002e-07 4.3663533e-08
1.5345657e-07 -1.1621538e-06 1.0460334e-06 6.6305955e-07 4.1077286e-07 5.3127576e-07 -3.1112097e-07 -6.1423617e-07
-1.5030496e-07 3.3135132e-07 -3.9721198e-07 -7.489862e-08 -9.56911e-07 -1.0301667e-06 -2.292349e-09 -2.961855e-07
9.0760615e-08 5.152187e-07 3.4295803e-07 -1.2127488e-07 -2.896353e-07 -7.138962e-07 5.1601216e-07 -4.032703e-07
4.3880963e-08 -3.1086643e-07 2.163723e-07 1.4947791e-07 6.7542993e-07 -2.7280538e-07 5.087163e-07 -2.4556186e-07
-5.4029084e-07 2.3221292e-08 3.1819064e-07 1.0575868e-07 1.3374537e-06 -8.968702e-08 3.1055555e-07 -3.9631345e-08
00000000: 704f 3235 deb4 eb33 8444 f6b4 f11e abb3
00000010: c534 bd33 0594 7c35 53b7 4534 4d44 19b5
00000020: 4b07 0135 1b1b 0534 f8a1 d432 5662 31b5
00000030: 4d7d f1b4 f7d5 3c34 a79e 25b5 19db 6935
00000040: 411a f334 86d9 58b4 1a40 56b4 ffa3 4fb4
00000050: 86ca 9734 cfe9 2b35 85c0 0d34 0de7 4db5
00000060: 4d90 2ab4 d0a1 ad33 00c0 6431 a55d 1134
00000070: d273 a234 b662 97b3 4edb 5835 f078 19b5
00000080: c80a 66b5 81bb 4233 7bff cc34 8ee9 e0b3
00000090: 2fff 19b5 c7c1 6934 3f42 c5b4 288f 9bb0
000000a0: bee4 1735 5846 dfb4 d323 2933 00ae 6eb5
000000b0: 7fff a8b4 52d6 df34 a274 28b5 865b 2235
000000c0: e6fb a734 5bf1 cfb4 c9b4 80b4 6c30 adb2
000000d0: a881 5bb5 4300 1b33 7699 a634 e9ea eeb4
000000e0: 717b 21b5 e77e 8fb5 f59f 19b4 14b0 d333
000000f0: da39 67b4 f0de b5b5 935e 8734 637b d3b4
00000100: c4ea 71b4 dd6a 18b4 8e89 4f35 fb29 9d33
00000110: 3e09 e132 3987 6435 35f6 0634 6b06 9a34
00000120: 7045 29b0 1526 4bb4 e2d3 d0b3 a55a 1a34
00000130: 51fb 02b5 3d5b 9fb2 39dd 4db5 0b87 d6b3
00000140: 3652 a634 c79f 1bb5 a11c 65b4 fd0e 5b34
00000150: 38c3 3335 16ed 1eb4 357d 48b4 9088 3b33
00000160: d2c5 2434 4dfb 9bb5 6f65 8c35 1bfd 3135
00000170: 3188 dc34 fe9c 0e35 2408 a7b4 fde1 24b5
00000180: 8363 21b4 94e4 b134 6640 d5b4 f4d7 a0b3
00000190: 366f 80b5 4244 8ab5 6e87 1db1 6d03 9fb4
000001a0: 2de8 c233 8f4d 0a35 cb1f b834 c937 02b4
000001b0: 2c7f 9bb4 93a2 3fb5 1684 0a35 0c81 d8b4
000001c0: a177 3c33 28e5 a6b4 f753 6834 2d80 2034
000001d0: 314f 3535 1676 92b4 b88e 0835 c4d5 83b4
000001e0: 8108 11b5 2978 c732 cad3 aa34 731d e333
000001f0: 8f82 b335 f699 c0b3 6eba a634 2037 2ab3
