test/integration/best_model.pth (torch, 5622 bytes, 8 tensors)

network.0.weight f4 [32, 5]
-0.10138272 0.05767263 0.01601225 0.008509348 0.035757583 0.0739928 -0.07825945 0.039921943
-0.0496521 -0.010594251 -0.066213444 -0.07673402 -0.010621775 -0.03150682 0.032750454 0.009195726
-0.077326626 0.06726692 -0.039140567 -0.035192337 0.038502727 -0.11782111 0.02586285 -0.03724742
-0.0027332464 -0.09151224 0.022880193 -0.04246608 0.02430314 -0.082019985 -0.10625633 0.012109975
-0.014195772 0.017137717 -0.035064336 0.03721507 -0.06990403 0.04893414 -0.07262309 -0.0197337
-0.04294831 -0.10337895 -0.0094597265 -0.017123317 0.028832601 0.06911121 -0.016506998 -0.017226556
-0.06793407 -0.033794183 -0.024450174 0.0421955 -0.080681905 0.054023527 0.039127618 0.06995178
0.063584395 0.036002077 -0.039994705 -0.0017983816 -0.035727803 0.03005766 -0.08892269 -0.0112297805
-0.0018840656 0.081853986 -0.09940799 -0.02987587 0.01640677 -0.0030385982 -0.033955146 0.078009
0.043457 0.050683435 0.062549606 -0.09921253 -0.07316444 -0.0027407059 0.024107244 -0.038641118
-0.06976345 -0.06506142 0.017823625 0.006668473 -0.03050882 0.04414388 0.06962371 0.057859376
-0.018637182 -0.020439493 -0.053901456 -0.047792144 0.005589592 0.054376144 -0.055593267 0.044829793
0.08949935 0.024552627 -0.032702062 0.03668494 0.06523033 0.052140113 -0.052729912 0.010464332
0.08961239 0.045186583 0.027286094 0.06104986 -0.063039936 0.06283807 -0.0860233 -0.042662855
-0.005640533 0.032191664 -0.0221377 0.047177114 -0.07448942 0.040666074 -0.045486905 0.0058369488
-0.1101947 0.06932774 -0.024952447 0.018189825 -0.0019040173 0.076985195 0.06892094 0.03450533
-0.017482772 0.043411203 0.066484556 -0.08759797 -0.0043716095 -0.07356341 -0.018097773 -0.09925348
-0.009186424 -0.06408929 0.04849503 -0.021037003 0.05590782 -0.038873203 -0.021691252 -0.08950996
0.05564606 0.08515603 -0.06553216 -0.0013732729 -0.08104182 0.025657428 -0.0880134 -0.00480478
-0.103129745 -0.020688813 0.03771524 -0.10564427 -0.04714698 0.012835848 0.049148034 0.00417878
00000000: bea1 cfbd 233a 6c3d 1f2c 833c cb6a 0b3c
00000010: 8b76 123d 8a89 973d 7e46 a0bd 3185 233d
00000020: 0060 4bbd 8293 2dbc ea9a 87bd ba26 9dbd
00000030: f406 2ebc 4c0d 01bd 5725 063d aca9 163c
00000040: 6c5d 9ebd 3dc3 893d dc51 20bd d725 10bd
00000050: 09b5 1d3d 324c f1bd 54de d33c c090 18bd
00000060: 4420 33bb c56a bbbd 3e6f bb3c eaf0 2dbd
00000070: 6117 c73c 18fa a7bd eb9c d9bd eb68 463c
00000080: 6295 68bc 6664 8c3c 9f9f 0fbd d46e 183d
00000090: d829 8fbd 2a6f 483d 6abb 94bd 92a8 a1bc
000000a0: 91ea 2fbd 58b8 d3bd f8fc 1abc 3346 8cbc
000000b0: 5932 ec3c 2e8a 8d3d af39 87bc b51e 8dbc
000000c0: 0521 8bbd c56b 0abd bb4b c8bc 30d5 2c3d
000000d0: 8e3c a5bd c647 5d3d 4844 203d e142 8f3d
000000e0: 8938 823d ea76 133d 7dd1 23bd acb7 ebba
000000f0: 5157 12bd 7b3b f63c 191d b6bd 1dfd 37bc
00000100: c0f2 f6ba 10a3 a73d 6b96 cbbd 3ebe f4bc
00000110: 7e67 863c 3823 47bb 8d14 0bbd 2fc3 9f3d
00000120: f8ff 313d 6f99 4f3d 021a 803d f02f cbbd
00000130: 3dd7 95bd 6a9d 33bb 8e7c c53c 2646 1ebd
00000140: 24e0 8ebd ec3e 85bd da02 923c 3583 da3b
00000150: a2ed f9bc 37d0 343d e096 8e3d f4fd 6c3d
00000160: 01ad 98bc b970 a7bc c6c7 5cbd b2c1 43bd
00000170: e528 b73b 85b9 5e3d c4b5 63bd 729f 373d
00000180: 6f4b b73d 9722 c93c 99f2 05bd f342 163d
00000190: 7b97 853d df90 553d 52fb 57bd 9772 2b3c
000001a0: b386 b73d 9115 393d 1687 df3c 6b0f 7a3d
000001b0: 151b 81bd 3fb1 803d fc2c b0bd 3fbf 2ebd
000001c0: 38d4 b8bb 68db 033d 1f5a b5bc ca3c 413d
000001d0: e98d 98bd 7891 263d 7a50 3abd e043 bf3b
000001e0: c2ad e1bd b4fb 8d3d 1369 ccbc d402 953c
000001f0: 3890 f9ba 6aaa 9d3d 6c26 8d3d 7655 0d3d
00000200: 0838 8fbc f2cf 313d 0e29 883d 9166 b3bd
00000210: b83f 8fbb 6aa8 96bd c841 94bc 6945 cbbd
00000220: a882 16bc 3f41 83bd b9a2 463d cb55 acbc
00000230: 99ff 643d 8239 1fbd dab1 b1bc ff50 b7bd
00000240: 1fed 633d 4966 ae3d ba35 86bd 64ff b3ba
00000250: 41f9 a5bd 872f d23c 5f40 b4bd 6a71 9dbb
00000260: b035 d3bd 967b a9bc 4c7b 1a3d 065c d8bd
00000270: 311d 41bd 734d 523c 734f 493d 26ee 883b

network.0.bias f4 [32]
0.0003221659 -0.0020270618 0.0023437317 0.0009480047 -0.00044923107 0.00020172572 -0.00075262145 -0.0004719891
-0.0009537849 0.0032153593 0.0008620439 -0.00068016845 0.0016484369 0.002161679 0.0014791859 0.00071622845
0.0018272203 -0.0022329749 0.0012443162 -0.0026748863 -0.0010954428 0.00081205403 0.00039103196 0.0017292864
-0.0006376403 -0.00076055474 0.0003088161 -0.00046091527 -0.0009551835 -0.00016878516 -0.00043167116 0.0018268389
00000000: 60e8 a839 74d8 04bb 4b99 193b 8583 783a
00000010: c686 ebb9 5686 5339 924b 45ba 4e75 f7b9
00000020: 6c07 7aba c7b8 523b c9fa 613a 554d 32ba
00000030: 5d10 d83a f5aa 0d3b 3ee1 c13a 47c1 3b3a
00000040: 577f ef3a 1a57 12bb 5318 a33a 254d 2fbb
00000050: f694 8fba 06e0 543a 6c03 cd39 39a9 e23a
00000060: 5127 27ba f75f 47ba 98e8 a139 00a7 f1b9
00000070: 4865 7aba ecfb 30b9 ec51 e2b9 8b72 ef3a

network.1.weight f4 [32]
1.0982049 1.110413 1.1397612 1.1390421 1.1103226 1.0767988 1.143396 1.1095774
1.141968 1.1420281 1.1403376 1.1424456 1.143152 1.0979121 1.0668381 1.0982347
1.1394466 1.1443698 1.1426677 1.141711 1.1072209 1.1426499 1.1387202 1.1362652
1.1435384 1.1431098 1.115475 1.1426663 1.1071432 1.1434585 1.0763394 1.1006944
00000000: fa91 8c3f 0322 8e3f b2e3 913f 22cc 913f
00000010: 0d1f 8e3f 8bd4 893f cd5a 923f a206 8e3f
00000020: 022c 923f fa2d 923f 95f6 913f a83b 923f
00000030: ce52 923f 6288 8c3f 278e 883f f492 8c3f
00000040: 63d9 913f b67a 923f ef42 923f 9623 923f
00000050: 6ab9 8d3f 5a42 923f 95c1 913f 2371 913f
00000060: 775f 923f 6c51 923f e3c7 8e3f e442 923f
00000070: deb6 8d3f d95c 923f 7dc5 893f 8ee3 8c3f

network.1.bias f4 [32]
0.10165598 0.11561319 0.1401561 0.14004488 0.11253464 0.07613012 0.1462891 0.114315294
0.14355099 0.14493245 0.14550616 0.14663237 0.14648305 0.09969558 0.0693124 0.09879761
0.14351383 0.14510709 0.14319275 0.14287373 0.10324933 0.14499052 0.14226186 0.13989568
0.14516546 0.14666627 0.117418095 0.14287654 0.109074235 0.14233999 0.08278442 0.09897423
00000000: 0331 d03d 9cc6 ec3d 1585 0f3e ed67 0f3e
00000010: 9078 e63d 1cea 9b3d cfcc 153e 231e ea3d
00000020: 08ff 123e 2c69 143e 91ff 143e cc26 163e
00000030: a7ff 153e 322d cc3d a9f3 8d3d 6756 ca3d
00000040: 4af5 123e f496 143e 1fa1 123e 7e4d 123e
00000050: 6274 d33d 6578 143e 18ad 113e d040 0f3e
00000060: 41a6 143e af2f 163e e678 f03d 3a4e 123e
00000070: 5062 df3d 93c1 113e e18a a93d 00b3 ca3d

network.1.running_mean f4 [32]
-0.0027416877 0.000853503 -0.0022172092 0.00015151681 0.00013810897 0.0020958278 0.000680525 0.00012669206
-0.00096143817 0.0018530127 -0.00067635666 -0.0002925194 0.0007918874 0.0010987278 -0.0028660304 -7.093104e-05
9.119697e-05 0.00023433985 0.0016656625 -0.0018403295 -8.468432e-05 -0.0031597551 7.666391e-05 -0.00024160894
-0.00030837153 -0.0015315216 0.0012708235 0.00024484214 -0.0016855018 0.00010165165 -0.0016996798 -0.0017910288
00000000: e3ad 33bb 9ebd 5f3a 994e 11bb 7ce0 1e39
00000010: 58d1 1039 285a 093b 4265 323a a4d8 0439
00000020: 0609 7cba cae0 f23a 874d 31ba 4a5d 99b9
00000030: aa96 4f3a 3003 903a 03d4 3bbb d0c0 94b8
00000040: 0041 bf38 20b9 7539 5c52 da3a 3637 f1ba
00000050: 8c98 b1b8 e513 4fbb a0c6 a038 6858 7db9
00000060: edac a1b9 56bd c8ba c391 a63a 285e 8039
00000070: 0eec dcba d02d d538 cac7 deba f4c0 eaba

network.1.running_var f4 [32]
0.2140656 0.21370909 0.20965342 0.21257864 0.21404368 0.21457775 0.21261944 0.21259579
0.210296 0.21040383 0.21314302 0.20901927 0.21174543 0.21766138 0.21258348 0.21060984
0.20906247 0.20903572 0.20921333 0.20978905 0.21396 0.21106881 0.20930122 0.21183024
0.21680692 0.20958169 0.21357422 0.2118963 0.21069597 0.21234524 0.21544255 0.21080977
00000000: 0334 5b3e 8ed6 5a3e 63af 563e 37ae 593e
00000010: 442e 5b3e 45ba 5b3e e9b8 593e b6b2 593e
00000020: d657 573e 1a74 573e 2a42 5a3e 2609 563e
00000030: cbd3 583e a0e2 5e3e 7caf 593e 1baa 573e
00000040: 7914 563e 760d 563e 053c 563e f1d2 563e
00000050: 5518 5b3e 6c22 583e 0f53 563e 07ea 583e
00000060: a202 5e3e 959c 563e 33b3 5a3e 58fb 583e
00000070: afc0 573e 0871 593e f99c 5c3e 84de 573e

network.4.weight f4 [3, 32]
0.11533355 0.11802171 0.13220531 0.124746665 0.1283481 0.1161481 0.14660804 0.118110515
0.15039696 0.13290706 0.13333724 0.14079802 0.12393904 0.11822752 0.114183664 0.11093478
0.13036023 0.12930864 0.1226915 0.13388783 0.12946421 0.13263512 0.13737302 0.12440604
0.13673404 0.14150882 0.11408808 0.12789026 0.12046345 0.12246627 0.111574836 0.12474622
-0.13326746 -0.10634199 -0.118542194 -0.109008305 -0.11171154 -0.11391308 -0.14516589 -0.13714288
-0.14536007 -0.12750037 -0.127499 -0.13313413 -0.12410098 -0.11785122 -0.1090921 -0.14195946
-0.12925184 -0.13143463 -0.1373272 -0.13005714 -0.124429196 -0.14180301 -0.13215706 -0.14642629
-0.14099441 -0.14187011 -0.14463621 -0.12431867 -0.13459432 -0.1332758 -0.10245087 -0.11713442
-0.12084059 -0.13916303 -0.12294883 -0.15444714 -0.12142128 -0.09589245 -0.13084279 -0.122652605
-0.13245681 -0.12604687 -0.12461758 -0.11328684 -0.13299662 -0.11716949 -0.12031085 -0.12486278
-0.1357485 -0.13475361 -0.13587336 -0.12026775 -0.114107504 -0.13400766 -0.123354994 -0.113868885
-0.11938153 -0.13329755 -0.117966495 -0.1227612 -0.11100728 -0.13463725 -0.1163549 -0.11801608
00000000: ff33 ec3d 5eb5 f13d d460 073e 2e7b ff3d
00000010: af6d 033e 0edf ed3d 6b20 163e ede3 f13d
00000020: a901 1a3e ca18 083e 8f89 083e 5b2d 103e
00000030: c0d3 fd3d 4521 f23d 20d9 e93d c631 e33d
00000040: 277d 053e 7c69 043e ae45 fb3d e419 093e
00000050: 4492 043e 80d1 073e 83ab 0c3e 98c8 fe3d
00000060: 0204 0c3e b0e7 103e 03a7 e93d aaf5 023e
00000070: 8bb5 f63d 99cf fa3d 5981 e43d f27a ff3d
00000080: 4477 08be d4c9 d9bd 40c6 f2bd bf3f dfbd
00000090: 05c9 e4bd 434b e9bd 5ea6 14be 2f6f 0cbe
000000a0: 45d9 14be 758f 02be 198f 02be 5054 08be
000000b0: a828 febd fb5b f1bd ae6b dfbd d25d 11be
000000c0: 985a 04be cd96 06be 809f 0cbe b32d 05be
000000d0: bcd4 febd cf34 11be 2e54 07be c6f0 15be
000000e0: d760 10be 6646 11be 841b 14be c99a febd
000000f0: 18d3 09be 7479 08be c3d1 d1bd 2ce4 efbd
00000100: 457b f7bd c180 0ebe 99cc fbbd 6427 1ebe
00000110: b8ab f8bd 4363 c4bd a7fb 05be 4a31 fbbd
00000120: c2a2 07be 6e12 01be 8037 ffbd ee02 e8bd
00000130: 4430 08be 8ff6 efbd 8965 f6bd 0fb8 ffbd
00000140: a801 0bbe dafc 09be 6322 0bbe f04e f6bd
00000150: 32b1 e9bd 4e39 09be 8ba1 fcbd 1734 e9bd
00000160: 4e7e f4bd 277f 08be 6b98 f1bd 396a fbbd
00000170: c957 e3bd 59de 09be 7a4b eebd 6ab2 f1bd

network.4.bias f4 [3]
0.12562974 -0.1255463 -0.12570906
00000000: 15a5 003e 368f 00be e0b9 00be
